tooth_IOSC_analyze-main/best_model_1839.pth (torch, 159618 bytes, 28 tensors)

embedding.weight f4 [16, 16]
000000 b6 7f f1 3f 45 fc b1 3f 2d c6 78 3f 47 6c ff bf
       1.8867099 1.3905112 0.9717739 -1.9954919
000010 63 12 24 3f a1 2d 98 bf 8c ae 20 bd d4 d1 c7 bf
       0.64090556 -1.1888925 -0.03922896 -1.561091
000020 12 eb 30 bf 49 47 c6 3f 8c 31 c6 be 67 73 af bf
       -0.6910869 1.5490505 -0.38709676 -1.3707093
000030 cb 8d 2e bf 89 26 1d bf 4a 65 38 bf 94 86 4e 3f
       -0.6818511 -0.61386925 -0.72029555 0.806741
000040 cd d4 d2 3f 85 71 2e be 7c 9c ff be 85 7a d7 3e
       1.6471192 -0.17035492 -0.49924076 0.42085662
000050 2b 4f 42 bf 8f aa 84 3f e9 c1 58 3f 28 17 ce 3f
       -0.7590205 1.036455 0.84670883 1.6100817
000060 04 3c a1 3f d0 2d a7 3f 79 33 10 3f 4c e9 af 3f
       1.259644 1.3060856 0.5632854 1.3743072
000070 ab 28 88 be bd 6c a0 3d e6 b5 8d be 5b 93 4f 3f
       -0.26593527 0.0783324 -0.2767784 0.8108422
000080 f9 67 b6 bf b4 a1 7a bf d9 e1 06 be ac 6d eb 3f
       -1.425048 -0.9790299 -0.13172092 1.8392844
000090 c5 3c b9 3e 31 f2 f1 be 1e 5e 57 3e 6b 37 2e bf
       0.36179176 -0.4725509 0.21031997 -0.6805331
0000a0 5f 4c c8 bf 7f 01 77 3f 32 83 69 bf ae 00 29 bf
       -1.5648307 0.9648666 -0.91215813 -0.6601666
0000b0 5c f7 a3 bf 95 a9 10 40 e4 75 b4 bf 9c 61 1e bf
       -1.2809863 2.2603505 -1.4098477 -0.6186769
0000c0 40 02 56 a5 2b 8c 99 93 26 f9 ad 02 24 bb b3 03
       -1.8562304e-16 -3.8760846e-27 2.556307e-37 1.056364e-36
0000d0 c1 69 b4 83 f8 5c 69 2f 1d 8b cd 9f 14 07 5f 9a
       -1.0603729e-36 2.1224256e-10 -8.705102e-20 -4.6121037e-23
0000e0 14 ae 07 b4 da c4 9d 03 d3 d7 47 03 07 5d 3f 15
       -1.2636184e-07 9.272826e-37 5.87286e-37 3.8645528e-26
0000f0 50 0c 72 83 86 70 7f 39 6c 24 35 af f4 ed a5 33
       -7.1131542e-37 0.00024360613 -1.6474794e-10 7.726695e-08
000100 aa 6f b8 3f d5 9a 5c 3f d5 37 10 40 e7 8d 21 3f
       1.4409077 0.86173755 2.2534077 0.6310715
000110 d9 9f e6 3e 9b 0a 84 be d1 e5 8c bf 72 c6 a8 3f
       0.4504383 -0.2578934 -1.1007634 1.3185561
000120 d8 b1 fc bd 6c 3f 07 3f 17 e5 5e 3c a7 bb f0 3e
       -0.123386085 0.5283115 0.013604424 0.47018167
000130 e1 27 2c 3f d4 de 15 bf 19 e3 14 c0 ad 56 52 bf
       0.6724835 -0.58543134 -2.326361 -0.82163507
000140 cc e5 fa 82 ed 28 ae 83 1c 6b d5 b2 ef 41 9c 8b
       -3.6866095e-37 -1.0236197e-36 -2.4845171e-08 -6.018822e-32
000150 bc c7 00 05 8b d6 b0 03 6d 7e 05 2e 3e 74 6a 03
       6.0552165e-36 1.0393607e-36 3.0352987e-11 6.889986e-37
000160 33 dd 01 1b 08 fd ac 83 17 5f 09 ab 2b 96 d3 0d
       1.0742103e-22 -1.01673445e-36 -4.880414e-13 1.3040031e-30
000170 34 dc 53 b8 35 70 a6 a0 b5 dc b4 32 4b 0a ae 03
       -5.05114e-05 -2.8195746e-19 2.1055124e-08 1.0229164e-36
000180 4e 5a 2b c0 75 07 28 3f 37 2b 46 3f 7f cb 06 be
       -2.6773868 0.6563638 0.7740969 -0.13163565
000190 f6 71 32 3f dc ea 46 3f f3 81 a4 3f 1e 40 b8 be
       0.6970514 0.77702117 1.2852157 -0.35986418
0001a0 fd a4 ef bd ed 96 43 3f 46 3f 0c 3f da 76 8a 3e
       -0.11701391 0.7640217 0.5478405 0.27043802
0001b0 c0 f0 97 3e 79 20 8f 3f a8 41 fc 3d 1d 67 24 be
       0.29675865 1.1181785 0.123172104 -0.1605496
0001c0 50 66 ee b4 0d 16 86 83 85 ff 43 8d a1 ff b0 03
       -4.4405397e-07 -7.880875e-37 -6.0396585e-31 1.040304e-36
0001d0 1e 22 99 19 2e 8e 5a 03 74 ea a8 83 8e 0f ae 03
       1.5833609e-23 6.4227656e-37 -9.92798e-37 1.0230372e-36
0001e0 42 59 19 04 4c d8 9f 03 6f 95 8e 03 8c ee 80 1c
       1.8026049e-36 9.394839e-37 8.380318e-37 8.531992e-22
0001f0 6f 9e 93 2c 6e bc af 03 f5 4e 19 19 b3 4f a6 03
       4.195581e-12 1.0328837e-36 7.92586e-24 9.774901e-37
000200 2c 04 f0 3f 9c 00 89 3f 38 7a b0 bf bd 2d 90 bf
       1.8751273 1.0703311 -1.3787298 -1.1263958
000210 69 0c 10 bc a9 75 cc 3f b7 23 32 3f cc 74 31 3f
       -0.008792021 1.5973407 0.69585747 0.6931884
000220 5f 2f 81 3f c7 0c b4 bd 03 04 d3 bf 1c 93 85 3f
       1.0092582 -0.087914996 -1.6485599 1.0435519
000230 22 93 81 be 36 91 6d 3f a5 52 21 bf 99 c7 3c 3f
       -0.25307566 0.927997 -0.6301673 0.7374206
000240 54 e8 09 a8 39 45 6b 27 b6 77 2c 37 36 7c ce 34
       -7.655406e-15 3.2650327e-15 1.0279871e-05 3.8460865e-07
000250 29 38 a9 03 fa 1b a2 83 d4 14 1e 9a 3d f4 73 03
       9.945821e-37 -9.527927e-37 -3.269046e-23 7.1691654e-37
000260 e0 77 ad 03 33 10 cc 27 9b 68 a8 83 45 ff 06 37
       1.0195548e-36 5.6638937e-15 -9.898169e-37 8.046457e-06
000270 52 ed ed bc 40 94 ac 83 0e 87 87 af 73 b2 b1 1f
       -0.029043827 -1.0143288e-36 -2.465232e-10 7.5257635e-20
000280 16 9d e7 bf b1 ee ba 3e ee c8 cf bd 88 ed 08 bf
       -1.8094814 0.36510232 -0.10145746 -0.53487444
000290 85 68 54 3e e1 0c 1c bf 73 27 9f 3e 8c ad 87 bf
       0.20742996 -0.6095715 0.31084785 -1.0599837
0002a0 4d b2 cb bf c7 95 a7 3f e9 8a a3 3f fa 60 32 3e
       -1.5913788 1.3092583 1.2776767 0.17419806
0002b0 75 d5 bf bf 46 bd 1a 3f 86 d9 58 3f be 8a 03 40
       -1.4987017 0.6044506 0.84706914 2.0553432
0002c0 fd 17 c0 3c 13 41 26 3e 54 e3 6b bf e8 3c 86 be
       0.023448939 0.16235761 -0.9214375 -0.26218343
0002d0 43 1d 81 bf ef c2 d0 bf 72 88 9c bf ea 34 10 bf
       -1.0087055 -1.6309489 -1.222914 -0.5633074
0002e0 d3 26 db be df 80 c8 bf a3 ad f7 bf 93 bb 00 3e
       -0.42803058 -1.5664328 -1.9349865 0.12571554
0002f0 85 55 87 3f fc 39 2d bf cb c2 2e 3f 17 d3 39 3f
       1.0572973 -0.676666 0.6826598 0.7258772
000300 be ae e2 3f 26 11 83 bf b1 69 4a 3f b5 4f d0 be
       1.7709577 -1.0239608 0.7906752 -0.40685812
000310 2c f7 9f bf 6b 10 d2 3e 53 e0 be 3e 90 b8 98 3f
       -1.2497306 0.4102815 0.3728052 1.1931324
000320 a6 fd 26 3f d4 84 10 40 41 fb 24 bf d6 ce 87 bf
       0.65230787 2.2581072 -0.64445883 -1.0609996
000330 3c 5d c1 3d 92 61 8f 3f e7 1d b2 3f 2d b1 fd 3e
       0.09441611 1.1201651 1.3915375 0.49549237
000340 9e f6 43 bf b1 fb 79 bf 79 df 15 bf 6c cc 21 bf
       -0.7654818 -0.97649676 -0.5854412 -0.6320255
000350 a6 06 d4 3d 14 76 d7 3e d0 81 a4 bd 86 bf 13 c0
       0.103528306 0.42082274 -0.08032572 -2.3085647
000360 39 30 d0 be ab 31 87 3f b5 ac e3 bf f6 28 bc 3f
       -0.4066179 1.0562032 -1.7787081 1.47
000370 4c f4 a3 3e 7f e1 f7 be 5f 71 83 3f 6c 93 d2 3f
       0.3202232 -0.48414227 1.0268973 1.645124
000380 01 ea 9b 02 e8 01 ba 37 86 fa 9a 03 08 24 69 ab
       2.2909515e-37 2.2173816e-05 9.108824e-37 -8.282823e-13
000390 a6 df 06 8a 68 0b 40 03 bb d6 a6 03 9a 90 90 3a
       -6.493929e-33 5.6436823e-37 9.805903e-37 0.0011029423
0003a0 c8 88 d7 03 d1 6a fc a4 e2 e1 f5 ba 70 2b 1c ac
       1.2667968e-36 -1.0946853e-16 -0.0018759335 -2.2193046e-12
0003b0 c2 b1 74 82 8e 79 ca 02 7c 53 9f 03 29 9a af 03
       -1.7977303e-37 2.9751001e-37 9.364347e-37 1.0320969e-36
0003c0 fa 0b 14 a6 26 93 a3 03 c0 28 5d 85 8e a0 af 03
       -5.1364046e-16 9.614063e-37 -1.0398855e-35 1.0322437e-36
0003d0 91 56 2c a3 bd 1b bc 02 f7 c1 a6 83 2b a1 0a 35
       -9.34247e-18 2.7640038e-37 -9.801135e-37 5.1643536e-07
0003e0 ff 82 05 31 ef d4 ad 98 92 a1 2d 22 3a e8 ab 03
       1.942851e-09 -4.493446e-24 2.3531407e-18 1.0103793e-36
0003f0 1e 85 84 05 0e 64 13 09 64 c2 b0 03 0d 53 9f 03
       1.246212e-35 1.7741527e-33 1.038898e-36 9.364248e-37

Conv1.0.weight f4 [8, 1, 3, 3]
000000 40 a1 28 3e 10 eb 70 be 2f 79 5c 3e 39 2c f8 3d
       0.16467762 -0.23527169 0.21530603 0.1211781
000010 16 f3 8c 3e 1d 14 81 be 80 24 62 3e e9 d0 08 be
       0.2752921 -0.25210658 0.22084236 -0.13360943
000020 d9 1d 21 3e 30 31 b1 3e 63 52 83 bd fe bc c3 bd
       0.15734042 0.3460784 -0.064121984 -0.09557532
000030 55 e1 6e bd 24 5b 7e be 0c 7d f6 3d 94 87 a5 be
       -0.058320362 -0.24839455 0.120355695 -0.3233
000040 5c 0d 80 3e 8f 66 62 3e 1c e9 99 3e bc 8c 62 bd
       0.25010192 0.22109435 0.3006066 -0.055309996
000050 1f 47 ad be e1 65 54 3d bd b3 34 3e fb 06 a4 be
       -0.33843324 0.05185497 0.1764669 -0.32036576
000060 34 38 90 bd 11 1b 4e be b9 a9 32 3c 5a 8f 2f be
       -0.0704197 -0.20127513 0.010904723 -0.17144528
000070 82 88 f0 bd 5a 51 fc bd 02 e8 a5 be d3 67 88 3e
       -0.11744787 -0.12320204 -0.3240357 0.26641712
000080 8a 5e 96 3e c5 7f af 3a 5b d8 52 bd 61 aa 19 be
       0.29369003 0.0013389519 -0.051475864 -0.150064
000090 77 de 97 be 2f 32 b9 be b8 1a db 3d 1a ee 0a be
       -0.29661915 -0.361711 0.106984556 -0.13567391
0000a0 f8 31 71 be aa fd 19 bd fa 28 f5 bd f5 f2 d7 bd
       -0.23554218 -0.03759543 -0.11970706 -0.10544387
0000b0 ad bf 0d bd bd 1e 96 bd 1b 3b 19 be 8a 0b 50 be
       -0.034606624 -0.073300816 -0.14963953 -0.20316902
0000c0 ad e3 7a be a1 a1 89 3e f6 00 12 be 77 ef 04 3e
       -0.24500914 0.26881126 -0.14258179 0.12981974
0000d0 9a 75 ca bd e7 69 87 3d 83 23 a5 3e e6 b7 04 3e
       -0.09885712 0.06611996 0.32253656 0.12960777
0000e0 08 d1 a5 be a7 16 8d 3d 49 14 96 3e 1e 53 f8 3d
       -0.3238604 0.06889086 0.2931235 0.12125228
0000f0 b5 21 76 3e 1c 84 a9 3e 29 f5 36 bd 4f 3b 5d 3d
       0.24036296 0.33108604 -0.044667397 0.05401164
000100 45 7f 88 be 4b 50 9d bd 9d 8f 80 3e d8 02 43 3e
       -0.266596 -0.0768133 0.25109568 0.19044054
000110 e9 85 3f be 1c c2 93 be 54 bb 65 be 02 66 9b be
       -0.18703426 -0.2885903 -0.22434741 -0.30351263

Conv1.0.bias f4 [8]
000000 2e 88 cb b6 80 af 70 37 c0 93 d0 33 b1 93 ad 38
       -6.065725e-06 1.43459765e-05 9.71263e-08 8.2767925e-05
000010 fc 80 d4 b4 76 c2 2a 37 28 17 44 37 80 6c 71 35
       -3.9581926e-07 1.0178066e-05 1.1687902e-05 8.9937384e-07

Conv1.1.weight f4 [8]
000000 97 6f 84 3f ed 88 81 3f 5a 9b 7f 3f 1e c2 7c 3f
       1.0346555 1.0119911 0.9984642 0.987337
000010 13 5d 7a 3f 65 9d 80 3f bc ae 78 3f 32 2a 80 3f
       0.9779827 1.0048033 0.97141623 1.0012877

Conv1.1.bias f4 [8]
000000 e7 22 98 3d 8a db 10 3d 52 50 ba 3d ea f2 ba 3c
       0.07428532 0.03536562 0.09097351 0.022820909
000010 1c 16 1a bd b1 73 d7 bc 72 cc 83 3c cd 32 25 bd
       -0.03761874 -0.026300283 0.016088698 -0.04033165

Conv1.1.running_mean f4 [8]
000000 94 d2 6f bd 24 e9 e4 bc 81 90 87 3d 45 a3 13 3d
       -0.058550432 -0.027943201 0.06619359 0.036044378
000010 06 de 96 3d 5a a9 4b 3d e0 6e 76 bd 98 13 bd 3d
       0.07366566 0.049722053 -0.060164332 0.09232253

Conv1.1.running_var f4 [8]
000000 c0 f7 a3 3e e7 23 34 3e 94 f4 f5 3e 61 ba a2 3e
       0.32024956 0.1759182 0.4803816 0.3178282
000010 d2 ce 55 3f 0f ad 2d 3e ca 5c 87 3f a3 e4 ec 3e
       0.8351871 0.16960548 1.0575192 0.46268186

Conv1.2.weight f4 [8, 8, 3, 3]
000000 cb 0d ae bc 62 25 9f 3d f0 21 36 bd fb f3 21 bd
       -0.021246811 0.07770802 -0.04446596 -0.03953932
000010 03 b9 59 3b 7c ab 84 ba fc 7b 91 bd 24 e4 cc bd
       0.0033221848 -0.0010121907 -0.07103726 -0.10004452
000020 9b 4a 16 be 89 f4 bc bd f7 27 a8 3d 61 1c 7c ba
       -0.14676897 -0.09226329 0.08210748 -0.0009617266
000030 65 42 a6 bd 70 e6 84 3a d5 7e 62 3c 92 a2 aa 3d
       -0.081181325 0.0010139477 0.013824184 0.08331789
000040 22 a2 31 3d 34 c6 de 3d 04 a5 14 be e5 c5 28 3d
       0.043367513 0.10877648 -0.14516073 0.041204352
000050 0a d3 ae 3d 80 63 47 bd 00 d7 b4 bc 42 66 11 3e
       0.08536346 -0.048678875 -0.022075176 0.14199165
000060 52 a8 92 bd 7c 6f 0e bd 55 38 ab bd 84 43 fe 3c
       -0.07161011 -0.03477429 -0.08360354 0.031038053
000070 af 77 15 3d bb 95 a2 3c 35 dc 23 3d 23 95 a1 bd
       0.036491092 0.019846788 0.040004928 -0.07889774
000080 7a 1c 42 be d1 9f 17 bb ad 74 c1 3d 3d 20 90 3d
       -0.18956175 -0.002313603 0.09446082 0.07037399
000090 52 67 b7 bd 85 dc 47 bd 68 51 c3 bd 5c 86 62 bd
       -0.08955254 -0.04879429 -0.095370114 -0.055303916
0000a0 87 e3 b5 3b a3 0f 9e 3d a4 b3 09 3e 28 78 de bd
       0.005550805 0.07717826 0.13447434 -0.10862762
0000b0 69 eb ca 3d 35 d7 b6 bd 52 e8 ac 3c d9 58 a7 3d
       0.09908182 -0.08927766 0.021106873 0.08171243
0000c0 46 b8 a3 bc de f8 05 3e 12 1f 03 be 47 7b a0 bd
       -0.01998533 0.13083217 -0.12804821 -0.07836013
0000d0 3c 54 ee 3d 43 be 8f bd f9 98 c9 bb c7 b4 06 bd
       0.1163716 -0.070187114 -0.006152269 -0.032887246
0000e0 50 2a 98 3d 45 16 2e 3d 56 c8 4d 3d 15 0f dd bd
       0.074299455 0.042501707 0.050239883 -0.10793892
0000f0 e1 f3 02 be d0 12 01 3c fb 49 34 3d 27 ae 87 bd
       -0.12788345 0.00787802 0.044015866 -0.06625014
000100 72 d1 86 bc b2 82 c5 3d 7c 39 11 bd f6 78 4e 3d
       -0.016457293 0.09644069 -0.035455212 0.050408326
000110 5b cc 65 ba d7 59 b1 bd 2a 17 fc bd 61 5c f7 3a
       -0.0008766108 -0.08659714 -0.12309106 0.0018872136
000120 d8 71 8d bd a7 9f 46 3d 5d a9 9f bd 3a d5 70 bd
       -0.069064796 0.0484921 -0.07795975 -0.0587971
000130 87 3d 06 3e f9 0f 1d 3d e7 39 e7 3d c8 44 86 bd
       0.13109408 0.03834531 0.11290341 -0.06556088
000140 90 89 91 bd 8a e6 75 3d 90 99 e5 bd f1 1f 64 bd
       -0.07106316 0.060034312 -0.1121093 -0.055694524
000150 2d a0 18 bc ce 75 54 bd 9e 8c 85 bd 5b 8d 2e 3d
       -0.009315533 -0.05187016 -0.06520961 0.042615276
000160 50 e0 c9 3d d7 cb 91 3c 6e 90 d1 bb 96 a5 12 be
       0.09857237 0.017797394 -0.006395391 -0.14320979
000170 6d f3 86 bd 43 7b 80 3a 24 09 8c 3d 1a 17 a7 bc
       -0.065893985 0.000980236 0.06837681 -0.020396758
000180 74 93 98 bd 9e da 8a 3d 97 d9 c3 bd de 89 e5 3d
       -0.074499995 0.06779979 -0.09562986 0.11207937
000190 a2 1f bc bc 16 f1 63 3c 41 a5 ef bb 50 d0 dc 3b
       -0.022964302 0.01391246 -0.007313401 0.0067387
0001a0 6c 49 80 bd 6a c9 8e 3d b2 c4 38 bb fe 12 0e 3e
       -0.06264004 0.069720104 -0.0028193411 0.13874432
0001b0 8b d8 0b 3e d2 f2 84 bb d5 fb ae bd b2 e4 d7 3d
       0.13656823 -0.0040572667 -0.08544127 0.10541667
0001c0 a3 e5 a2 3d 2f c3 91 bd 17 d7 ab bc 27 9f 11 be
       0.07953956 -0.071173064 -0.020976586 -0.14220868
0001d0 f2 fc ab bd ad 6a 67 3d 23 f5 08 3d 70 81 89 3b
       -0.08397855 0.05649822 0.033436906 0.0041963384
0001e0 20 1a 2a bd bb fd f7 3d 88 84 74 3b 04 83 3c bd
       -0.04152882 0.12108942 0.003731044 -0.046023384
0001f0 02 ac b9 ba 81 ce 2d 3d cd ca 16 3d 4e 83 0e be
       -0.0014165642 0.042433266 0.0368145 -0.13917276
000200 96 b8 09 3d 47 5f a3 bd 1e eb b6 bd fa 0a bc bd
       0.0336233 -0.07977157 -0.08931564 -0.09181781
000210 df 5d fe 3d fc f6 09 3e 50 b0 fb 3d 59 aa c3 3d
       0.12420248 0.13473123 0.12289488 0.095539756
000220 2c 05 c9 3d ef 2a 19 bd 3e 0d 77 bd 67 fd 85 3d
       0.098154396 -0.03739446 -0.060315363 0.06542473
000230 12 86 86 bd 1e 18 12 be 62 0d 8a bd 6a c9 17 3d
       -0.06568541 -0.14267012 -0.06740834 0.037057318
000240 a9 81 db 3c 22 c0 a3 bd 83 e1 7f bd af a7 a2 3d
       0.026795225 -0.07995631 -0.062470924 0.07942139
000250 52 c7 fb bc ca 3b e1 bd 3e 22 93 3d e1 ea 47 bd
       -0.030734692 -0.10997732 0.071842656 -0.048807982
000260 1c 8c 11 3e 3e 51 f2 3d 5a 0b 3d 3d 7b ce 23 3d
       0.14213604 0.11831902 0.046153404 0.039991837
000270 88 ac 25 3b 08 8d 8b bd 24 cd 05 3d 4d fc b8 bb
       0.0025279839 -0.06814009 0.03266634 -0.005645311
000280 96 be f1 3d 27 40 0a 3e 76 a6 76 bd d1 0c 37 bd
       0.118039295 0.13501035 -0.060217343 -0.044689957
000290 43 dd 9c 3c eb cb 52 bd 44 97 aa 3c 2a c9 c7 3d
       0.019148475 -0.051464003 0.020824082 0.09755166
0002a0 09 ff ee 3d d8 25 ab 3d 1d a2 94 bd 16 7c 84 bd
       0.11669738 0.083568275 -0.07257483 -0.0646898
0002b0 fd 4b 14 3c 97 df 21 bd 63 eb 5d 3c 4a bd 05 be
       0.00905132 -0.039519873 0.01354489 -0.1306049
0002c0 74 5e a0 3b 89 74 cc bd e1 75 b6 bd 5f 40 c0 bd
       0.004894072 -0.09983165 -0.08909202 -0.09387278
0002d0 97 da 11 3e a0 ba c8 bd 5e a2 de 3d b3 55 b5 ba
       0.14243542 -0.09801221 0.10870813 -0.0013834744
0002e0 0c 7e 0c bc e2 50 89 3d 65 31 37 bd 4b 02 3c 3d
       -0.008574974 0.0670488 -0.04472484 0.045900624
0002f0 84 e2 a3 3d 13 4c e8 bd d1 dc c0 3d 81 df 41 3d
       0.08002189 -0.11342635 0.094171174 0.04733229
000300 26 4d 48 3d 50 9c c7 3c aa 17 60 3b 37 c5 77 bd
       0.0489017 0.024366528 0.0034193792 -0.060490813
000310 8f bf 22 bd a9 1a 13 3e 3d d9 f4 3c 79 32 a4 bc
       -0.039733466 0.14365639 0.029888744 -0.020043598
000320 c2 c6 ec bd 68 ba 98 3c f1 b9 b4 bd 68 bc dc 3d
       -0.115613475 0.018643573 -0.08824528 0.10778123
000330 84 c4 72 bd 5f 6e 91 3c 11 0c b3 3b 65 a5 ac 3c
       -0.059269443 0.017752824 0.005464085 0.02107496
000340 43 95 ce 3d 8a b2 57 3d 36 3a c0 3d 0c 0c d1 3d
       0.10087063 0.052660502 0.09386103 0.10207376
000350 d6 71 a8 3d f3 d3 1c bd 95 99 a7 bc ea 67 24 3d
       0.082248375 -0.038288068 -0.020458976 0.040138163
000360 e1 48 4e bd e6 7b 92 3d 4e ef 47 bd 2c 9e df bd
       -0.05036247 0.07152538 -0.048812203 -0.10918841
000370 e4 36 68 3d bb d9 2a 3d 85 96 20 3d 4f b3 1f 3e
       0.056692973 0.04171155 0.039206047 0.15595745
000380 fc e8 8e 3d 53 e5 1b 3e 75 41 99 3c aa cd 88 bd
       0.06978032 0.15224199 0.01870797 -0.06679852
000390 14 86 62 bd af 92 9c bd 27 9f 02 be cb ee 5f bd
       -0.055303648 -0.07645165 -0.12756024 -0.05467109
0003a0 e2 cf 1a be 7e 42 f7 bd af a1 a0 bd 3d db e4 bd
       -0.15118363 -0.12073229 -0.07843339 -0.11174629
0003b0 7c fd c0 bd 04 b3 80 3c 80 70 bb 3d e2 7f 50 bd
       -0.09423348 0.015710361 0.09152317 -0.05090321
0003c0 92 0d bd bd a3 bc 69 3d 8f 05 11 bd be b3 80 bd
       -0.09231104 0.057064664 -0.03540569 -0.06284283
0003d0 c3 54 46 3d 8f 85 bf bd 72 7d 38 3d 39 3b e2 3d
       0.04842068 -0.09351646 0.04504151 0.11046452
0003e0 90 4f b6 3c 86 25 41 3d 81 3a b0 bd 4b 98 84 bc
       0.022254735 0.047154926 -0.08604909 -0.0161859
0003f0 c0 20 ba bb 50 17 ea 3b 10 b2 12 3d 63 c9 c5 3d
       -0.0056801736 0.0071438923 0.035814345 0.09657552

Conv1.2.bias f4 [8]
000000 2b fe d0 34 f6 88 3a b8 a2 81 83 b5 8d 23 44 b6
       3.892795e-07 -4.447341e-05 -9.797989e-07 -2.922697e-06
000010 2c 40 c1 37 2d 94 c3 b6 ee 56 7c 35 48 fc 04 35
       2.3037275e-05 -5.828703e-06 9.4003815e-07 4.954095e-07

Conv1.3.weight f4 [8]
000000 43 a8 7d 3f 08 04 88 3f eb a1 6a 3f 81 37 72 3f
       0.9908487 1.062623 0.9165332 0.9461594
000010 2e a8 82 3f 7b ed 74 3f 44 08 88 3f 59 38 84 3f
       1.0207574 0.95674866 1.0627522 1.0329696

Conv1.3.bias f4 [8]
000000 ee 7c 69 bd 3c e2 0e bd 94 0d 88 bd db 24 b5 bd
       -0.057003908 -0.034883723 -0.06643215 -0.0884492
000010 58 d0 7b bc 18 ce b8 bd ed 9b 04 bd c0 c7 60 bd
       -0.015369497 -0.09023684 -0.032375265 -0.054877996

Conv1.3.running_mean f4 [8]
000000 d0 23 5a bc c9 83 7c bd 8a eb 15 3d 53 d7 0c bd
       -0.013314202 -0.061649118 0.03660158 -0.034385037
000010 2b 88 89 bc 50 f7 3b 3d 13 c3 96 bc fe 4f 50 3d
       -0.016788563 0.045890152 -0.018403566 0.050857536

Conv1.3.running_var f4 [8]
000000 23 ff 12 3f 26 3d 9e 3e 67 4e 1c 3f b5 53 b6 3f
       0.5742056 0.30906028 0.6105713 1.4244295
000010 64 b3 1c 3f 82 9b ed 3e 0d d0 bc 3e b0 62 2e 3f
       0.6121123 0.46407706 0.3687748 0.68119335

Conv2.0.weight f4 [16, 8, 3, 3]
000000 2d 9e e0 bc 0b 50 d8 bc 74 52 9c bd c4 2e 98 3c
       -0.027419174 -0.026405355 -0.07632914 0.018576987
000010 31 68 27 3e 47 82 8d bc 05 90 18 bd 48 21 02 3d
       0.1634834 -0.017274035 -0.037246723 0.03177002
000020 9b 4d 88 bb 5e c6 40 3d 52 b6 03 3e 31 66 9e bd
       -0.004159642 0.047064178 0.12862518 -0.07734335
000030 12 26 8c 39 ff e0 d3 bd bf 3a 00 bd 8b d1 98 bd
       0.00026731245 -0.10345649 -0.031306025 -0.07461842
000040 d9 bf 61 3c 66 2b 98 3d 89 31 75 3c 0d fa bc 3b
       0.01377865 0.074301526 0.014965423 0.005767113
000050 7f 42 fa bd 97 6e b1 bc d5 0f 84 bd 99 23 3e bd
       -0.122197144 -0.021659179 -0.06448332 -0.046420667
000060 da 4a ea bd 4c 7e ab 3d d1 f4 c0 bd c0 2d 06 be
       -0.11440058 0.083736986 -0.09421695 -0.1310339
000070 71 cd f1 bd b0 d2 76 3d e4 47 85 bd e3 20 7d bd
       -0.11806763 0.06025952 -0.06507853 -0.06179894
000080 cb 60 65 3d b1 ae 9b 3d 20 fd ac 3d b9 88 d3 bd
       0.056000512 0.07601679 0.08446717 -0.10328812
000090 34 97 c2 bd aa df b6 bd d7 6f e9 3d 08 90 23 3d
       -0.09501496 -0.08929379 0.11398285 0.03993228
0000a0 5f 8b a2 bd 81 b4 d1 bc e2 e6 8f bd bc 1d f0 bb
       -0.07936739 -0.025598766 -0.07026459 -0.0073277634
0000b0 6d c5 ea 3c d4 24 c8 3d 8a 65 0c 3d 7b 4b 6a bd
       0.028658593 0.097726494 0.034276523 -0.05720089
0000c0 86 4d ac 3c 80 4a 62 3b 74 70 b8 3d dd 38 5a 3d
       0.02103306 0.0034529269 0.09005824 0.053276885
0000d0 5b 03 ce bb 9f 2c eb bc 4f b0 c0 3d 05 7a 2d bd
       -0.006287021 -0.0287078 0.09408628 -0.042352695
0000e0 a2 d0 4e bd d0 3a 83 3d 5e af 21 3e 92 51 b2 3d
       -0.050491937 0.06407702 0.15789554 0.087069646
0000f0 f0 5e 6a 3d 38 96 34 bd 3b bd e8 3d da 2c 2d 3e
       0.057219446 -0.044088572 0.11364218 0.16911641
000100 7f 7d 05 be 70 6c be bc 80 a1 a7 bd 65 7e 8a 3d
       -0.13036154 -0.023245066 -0.081851006 0.06762389
000110 91 a7 47 3d 13 a8 85 3c cb 60 c8 bc 00 b9 a0 3d
       0.04874379 0.016315496 -0.024460217 0.07847786
000120 1e 2c 2d 3c 5b 75 e3 bd 17 eb e7 3d 8d e4 3e bd
       0.0105696 -0.11106368 0.11324137 -0.04660468
000130 9a b1 0c 3d 5c 4f 1d bc 50 fb e6 3c 6e fa c5 bd
       0.03434906 -0.00960144 0.028196007 -0.09666906
000140 ef be ae 3d 49 8c 36 bd ec a2 81 bd 4a 4f 7d bc
       0.085325114 -0.04456738 -0.06329903 -0.0154607985
000150 5a b5 e9 bc f2 7a 9e bd 0f cf 55 bc 45 7c b3 bd
       -0.028528858 -0.07738294 -0.013049855 -0.08763937
000160 b5 7c 60 bd 42 23 b6 bc f8 75 d3 3c 6b 95 ff bd
       -0.05480643 -0.02223361 0.025813088 -0.12479671
000170 cb aa a4 bd ec 19 d1 3b 28 6d a0 bc bf 5d 84 3d
       -0.08040389 0.006381264 -0.0195833 0.06463193
000180 7a 45 b4 bd c1 62 68 3d e7 3a dc 3d 19 ed 84 3d
       -0.08802314 0.056734804 0.10753422 0.06490535
000190 06 44 bb bd b9 64 b5 bc ba 8c 55 bd 0f c7 f6 bc
       -0.09143834 -0.022142755 -0.05213616 -0.030124215
0001a0 3c 1f 8d 3d 1b a4 24 bd e5 58 c7 3d 1a 86 68 bd
       0.06890723 -0.040195566 0.09733752 -0.056768514
0001b0 84 9b 8c 3d f5 31 b0 bd fe 8d 3d 3d c5 b9 6d bd
       0.068656 -0.086032785 0.046277992 -0.05803849
0001c0 f1 e0 e3 bc ff b2 19 be 32 2b f6 3c 1b 28 08 3e
       -0.027817221 -0.15009688 0.030049894 0.13296549
0001d0 79 b0 cf 3d 21 29 db bc 31 7f a0 bb 59 d9 c1 3c
       0.10141081 -0.02675301 -0.004897975 0.02366321
0001e0 cf 25 a7 bd 21 a2 e6 3c 1c f6 c4 3d 8c ba 82 3d
       -0.08161508 0.028153481 0.09617254 0.06383237
0001f0 be 8a ba bd 98 40 ae bd 4b 13 96 3d 66 88 99 3b
       -0.09108494 -0.08508414 0.073278986 0.0046854494
000200 d5 9e e1 bc 13 af 1b be 37 79 0a 3e e9 3b 13 bd
       -0.027541557 -0.15203504 0.13522802 -0.035945807
000210 cb d8 62 bc a4 13 aa bd e8 79 e7 3d e7 b9 72 3d
       -0.013845633 -0.083045274 0.11302549 0.05925932
000220 ea d2 e7 bc 3d f3 ec bd cd 9d 7e bc 97 6a 08 be
       -0.028298814 -0.115698315 -0.015540552 -0.13321911
000230 b8 00 f7 bd 3e e2 6b 3d dd c0 ca 3d 74 96 09 3e
       -0.12060684 0.05758881 0.09900067 0.134363
000240 6d ff d8 bd c5 c5 ac 3d d3 b3 09 bd f5 2a e7 3d
       -0.105955936 0.08436159 -0.03361876 0.1128749
000250 6c 2f cd 3d 5d db c8 3d 7e d8 a2 3d 72 5f 4a 3d
       0.10018811 0.09807465 0.07951449 0.04940743
000260 9e 3d dc 3c ba 78 c6 3d 5a c0 74 bd d8 e5 bb 3d
       0.02688485 0.096909955 -0.059753753 0.091746986
000270 29 99 44 bd bb cf 86 3b 5e ff e7 bd 51 c8 6d bc
       -0.047997627 0.004114119 -0.11328004 -0.014513091
000280 22 ee cb bb a9 4f 2f bd 7f fe 5d bb 18 3d cd bd
       -0.006223456 -0.04280058 -0.0033873615 -0.10021418
000290 49 00 73 bc 81 9c 52 3d 59 12 b6 3d 42 5b 3c 3d
       -0.014831611 0.051418785 0.08890218 0.045985468
0002a0 1f 76 d7 bd 19 57 c5 bd f8 78 4b 3d 37 48 60 3d
       -0.10520577 -0.09635753 0.04967591 0.05475637
0002b0 26 8e 08 be d0 53 88 3d 40 db d2 3d 08 7d 42 3d
       -0.13335475 0.06656611 0.10295725 0.04748252
0002c0 81 62 93 bd fd e4 be 3d 02 fe 82 3d 8b 55 a2 3d
       -0.071965225 0.0932102 0.063961044 0.07926472
0002d0 f9 24 4f bd 91 be 15 3e 26 11 e5 bd d4 5e 07 3e
       -0.05057237 0.14623477 -0.111849114 0.13219768
0002e0 2f b2 4c bd 16 a1 47 3c d8 83 21 bc ca 16 46 3b
       -0.049974617 0.012184402 -0.009858094 0.0030225986
0002f0 b4 0f ef bb 7e 6d 76 3d b2 04 bd bd f9 26 ca bd
       -0.007295573 0.060163014 -0.09229411 -0.09870715
000300 6a ad 4d bd 82 12 b6 3d d6 b9 05 bd 13 17 2d 3d
       -0.05021421 0.08890249 -0.03264793 0.042258333
000310 7f 99 b0 bd e5 c4 00 3e af 4c d6 3d 3e f6 12 3d
       -0.08623027 0.1257511 0.10463845 0.035879366
000320 1e 15 b7 bd 52 3d ee bd b3 3b 86 3c 3f 32 d4 bd
       -0.08939575 -0.1163279 0.016385889 -0.10361146
000330 d0 33 22 3e d6 3f e4 bd b2 a4 c6 3d 2b 09 04 3e
       0.15840077 -0.11144988 0.09699382 0.12894122
000340 77 61 46 3d c5 9b fd 3c 7f 95 ed bd 73 7f c1 3d
       0.048432793 0.030958066 -0.1160078 0.09448137
000350 e0 0d 4f bc 3d 53 d2 bd 65 6c c8 3d a1 0d 99 bd
       -0.012637585 -0.10269783 0.097862996 -0.07473303
000360 d5 5b 06 3d ce 3d f9 3d fd db f3 bd 34 40 c7 bd
       0.03280242 0.121699914 -0.11907194 -0.09729043
000370 fa 4f d3 3c b8 4f fd bb e5 d2 62 3d a1 80 d4 bd
       0.025794972 -0.0077304505 0.055376906 -0.103760965
000380 3a 22 46 3d 18 4a 17 bc c0 6b 96 bd b8 83 1c be
       0.048372485 -0.009233974 -0.073447704 -0.15284622
000390 8c fc e7 3b 40 a6 dc 3c 18 14 a4 bd e7 68 e1 3d
       0.0070796665 0.026934743 -0.08011645 0.11006337
0003a0 eb 9a 98 3c 1b 11 4f 3d 9e 15 bd bd ae 53 6b 3c
       0.018628558 0.050553422 -0.09232639 0.0143632125
0003b0 6c 7b ca 3d fa 9d f2 3d ac 73 c5 bd 7f fe cf 3d
       0.09886822 0.11846538 -0.09641203 0.10155963
0003c0 38 64 38 3c 20 df 15 3d 94 61 03 3d 0a 7b b6 3d
       0.011254363 0.03658974 0.03207548 0.089101866
0003d0 e5 41 ba bd 1a 6d f8 3d be fe 08 be 81 32 11 3d
       -0.090946 0.121301845 -0.13378426 0.035448555
0003e0 fa bc ab bd ec 94 87 bd c3 2c 0f bd c6 c0 91 3d
       -0.08385654 -0.066202015 -0.034954797 0.07116847
0003f0 7c 0d 12 bb 15 fc 0f bd e3 9f 45 3e c8 7d a1 3d
       -0.002228587 -0.035152514 0.19299273 0.07885319

Conv2.0.bias f4 [16]
000000 49 ca c9 b6 08 f8 0a 37 1f b7 38 b8 20 1e 1a b5
       -6.013816e-06 8.28319e-06 -4.4039563e-05 -5.741331e-07
000010 c6 a5 81 34 36 e3 e4 b5 49 bd 94 38 04 79 7f b6
       2.4148738e-07 -1.7053451e-06 7.092447e-05 -3.8068401e-06
000020 0a 3d 63 37 a8 c7 ed 35 89 c5 ac b8 a2 ae ad 36
       1.3544466e-05 1.7715984e-06 -8.238393e-05 5.1761317e-06
000030 a4 4a 61 b5 26 13 ec b4 30 fd 00 36 3e c5 1d 36
       -8.392765e-07 -4.3972358e-07 1.922086e-06 2.3509633e-06

Conv2.1.weight f4 [16]
000000 97 e5 83 3f da 87 83 3f d0 10 7c 3f a6 ca 78 3f
       1.030444 1.0275834 0.98463154 0.97184217
000010 6d 7f 64 3f aa b8 78 3f b3 b1 85 3f 08 a4 73 3f
       0.89256936 0.97156775 1.0444854 0.95172167
000020 bb 22 7e 3f ed 5d 85 3f 0f df 81 3f f5 b7 8b 3f
       0.99271744 1.0419289 1.0146197 1.0915514
000030 8c 37 7d 3f 95 4f 6d 3f 55 13 82 3f 26 67 7c 3f
       0.9891288 0.9269956 1.016215 0.9859489

Conv2.1.bias f4 [16]
000000 87 49 10 3d e4 b1 2e 3d 4f 80 6e bd 75 36 3e 3c
       0.03522637 0.04265012 -0.058227833 0.011609663
000010 e4 fc 4f bd 61 0f 1b bd 7d d0 5a 3c d9 ee eb 3c
       -0.050778285 -0.037856463 0.013355372 0.028800415
000020 82 4e 18 bd 78 0d b3 3c fb db 91 bb 2e 9a 91 3c
       -0.037184246 0.021857008 -0.0044512725 0.017773714
000030 db 93 c2 3c 62 37 fe 3b d6 7d 2d bc c4 6b 91 ba
       0.023752144 0.007758067 -0.010589084 -0.0011094739

Conv2.1.running_mean f4 [16]
000000 4c f0 22 3e 78 f8 fa be 97 f2 dd 3e 84 49 45 be
       0.15911978 -0.49017692 0.43349144 -0.19266325
000010 56 eb 61 3f 10 cd 21 3e 7f 48 13 bf e9 e0 35 bf
       0.8824972 0.15800881 -0.57532495 -0.7104631
000020 03 ed 70 3f 8b 53 b5 be 43 45 35 3e c1 58 be 3e
       0.9411165 -0.354153 0.17702202 0.3717709
000030 d0 f1 8c be 42 54 7f be 6d 96 42 be ec 29 48 bf
       -0.27528238 -0.24934486 -0.19002695 -0.7818897

Conv2.1.running_var f4 [16]
000000 07 7e 9c 3d a7 03 24 3e d1 94 11 3e 17 a3 f0 3d
       0.07641225 0.16017018 0.14216925 0.11749857
000010 d2 0e e1 3e d2 37 4a 3e 5c 4c 29 3e f1 9b 3a 3e
       0.4395662 0.19747856 0.16533035 0.1822355
000020 95 c5 4c 3e 5d 48 50 3e af d0 1f 3e 6c 98 0c 3e
       0.19997247 0.20340104 0.1560695 0.1373002
000030 cd f2 00 3e 2e 63 07 3f 49 a9 12 3e 00 93 38 3e
       0.12592621 0.5288571 0.1432239 0.18024826

Conv2.2.weight f4 [16, 16, 3, 3]
000000 de 14 40 3d 3e 6c 36 bc 22 fa ed 3c 4b a8 99 bd
       0.0468949 -0.011134205 0.029049937 -0.075028025
000010 3b c6 1e 3d ca b3 18 3d 48 92 34 bd 1b b5 f4 bc
       0.038763266 0.037280835 -0.044084817 -0.029871514
000020 04 49 31 3d f3 67 d7 3c bd 4b f5 3c b1 15 90 bd
       0.043282524 0.026294684 0.029943341 -0.07035387
000030 89 ec 9e 3d 55 37 42 3d ba 7c ce 3b 24 71 30 bc
       0.07759959 0.04741605 0.0063014897 -0.010769162
000040 21 eb eb bc 8a 70 d1 3d 87 a7 2b bd ee 5d 54 3c
       -0.028798642 0.10226543 -0.041907813 0.012961848
000050 a9 39 c0 bd 03 b5 18 bc 10 d8 85 3d 57 1f 03 3c
       -0.09385998 -0.0093205 0.06535351 0.0080030775
000060 31 41 a5 3c c8 01 ab 3c 9f 69 61 3d 42 d6 a1 3d
       0.020172687 0.020874873 0.05503237 0.079021946
000070 0c 0f 01 3d a3 cc 9f 3d 61 f8 08 bd 71 99 e5 3c
       0.03150849 0.07802703 -0.033439998 0.028027268
000080 c1 28 19 3b 22 e6 9d bb 22 3c 7f 3d 5c 3c 8d 3d
       0.0023370238 -0.0048186937 0.062313206 0.06896278
000090 2b cf 54 3c b5 b5 b5 bb b0 06 b2 3d 62 c6 b5 bd
       0.012988846 -0.005545343 0.08692682 -0.08875729
0000a0 1c 87 6f 3d da c1 f7 3c 69 26 0b 3d 10 00 e4 bc
       0.05847846 0.030243803 0.033972178 -0.027832061
0000b0 0d 35 18 be 8f 74 21 3d de d1 e5 bd 41 bb 8d 3c
       -0.14863987 0.0394178 -0.112216696 0.017301204
0000c0 20 48 a3 3c a8 a8 8d bd 14 8b d7 3c 19 e5 81 bd
       0.019931853 -0.06916934 0.026311435 -0.06342525
0000d0 02 85 86 3d aa 78 bc bd d4 0a 77 3d fa 44 a0 3d
       0.06568338 -0.09202702 0.06031306 0.07825656
0000e0 aa 86 00 3d 79 82 f0 3d 42 e5 08 3c 32 fc 72 bd
       0.031378426 0.11743636 0.008355441 -0.059322543
0000f0 07 0d 93 3d dc 1a de 3c ca c6 d2 3c fe ff cb bd
       0.07180219 0.027112417 0.025729556 -0.09960936
000100 05 c5 29 bd 65 94 b0 bd 9a 33 4e 3d e9 67 b7 3d
       -0.041447658 -0.08622054 0.05034218 0.08955366
000110 26 f1 a7 3d 8f 12 64 3d 5f 1b bb bd fe 4c 1e bd
       0.08200292 0.05568176 -0.0913608 -0.038647644
000120 da 4f 2a bd b8 91 0c bd f8 ce a7 3d 31 bd 4a 39
       -0.04158006 -0.034318656 0.08193773 0.000193347
000130 65 e1 8f 3d 63 cc 16 bd 52 a3 00 be 86 f0 8b bd
       0.070254125 -0.036816012 -0.12562302 -0.068329856
000140 90 35 72 3c f2 bb 8e 3d b4 14 4d bc 1d 2e b0 bc
       0.014783278 0.069694415 -0.012517143 -0.021506364
000150 f1 6c c3 bd b3 4a 99 bc 32 c7 75 3d 3b d9 81 3d
       -0.09542263 -0.018712377 0.06000442 0.063402615
000160 39 86 48 3d 26 01 ed 3d f5 7a 51 bd 6b 76 a6 3d
       0.04895613 0.11572485 -0.05114265 0.08128055
000170 27 52 1d bd 8c c2 98 3d 77 cf 82 bd 65 fc 8f bd
       -0.038408425 0.07458982 -0.06387227 -0.07030562
000180 65 0d a1 bc 4d 86 43 3d e2 ad d7 bd 75 6b 1d 3d
       -0.019659707 0.0477355 -0.105312124 0.038432557
000190 ee 6d ad bd 7a 72 8e bd e7 e2 2f bd bb 8f 46 3b
       -0.08468233 -0.069554284 -0.042941 0.0030298072
0001a0 d1 98 33 bd 4d b4 0f bd 3b e5 0b 3d fa de e0 bd
       -0.04384691 -0.035084058 0.034154158 -0.109800294
0001b0 a9 25 1f 3b 0f 98 18 3d a5 64 41 bb 36 dd c4 3d
       0.0024283922 0.03725439 -0.0029509452 0.09612505
0001c0 3e 76 51 3c 64 b0 39 bd 23 99 be bc 9c a4 24 bd
       0.012784539 -0.045334235 -0.02326638 -0.040196046
0001d0 8f 0b cc bc 89 04 c2 3c 94 ff 54 bb 4e 21 b0 3d
       -0.024907855 0.023683803 -0.003250097 0.08600102
0001e0 7f ac d0 3c 2c 89 3e bd 11 90 dd bb 04 b3 a5 3c
       0.025472878 -0.046517536 -0.006761559 0.020226963
0001f0 9d 32 c3 bc d8 18 80 3d 8d 1c 66 bd e5 6d 13 3d
       -0.023827845 0.062547386 -0.056179572 0.035993475
000200 95 03 f1 bd 7d 61 1f bd 9d d4 b2 3b 9c 71 fb 3c
       -0.11768261 -0.03891133 0.0054574744 0.030693822
000210 ef a6 2f 3d 76 4d ab 3d 52 b3 f6 b9 44 57 2a 3d
       0.04288381 0.08364384 -0.0004705438 0.04158713
000220 05 eb 3f 3b f9 22 12 bd 60 cd 83 3c 54 b8 bc 3d
       0.002928437 -0.035677884 0.016089141 0.09214845
000230 29 ff 5f 3d 13 ae a0 bd 25 56 3f 3d e8 42 b9 3b
       0.0546867 -0.07845702 0.046713013 0.005653728
000240 f6 ae 8d 3b 09 af 41 bd 73 1d 2c 3d 0c 69 e9 bc
       0.0043238355 -0.047286067 0.042020272 -0.028492473
000250 ce 09 bd 3d 00 5b b1 3c 82 41 5e bd a7 15 84 bd
       0.09230386 0.021649837 -0.054261692 -0.06449442
000260 b1 d6 8d 3d fa 21 80 3c 2c ff 11 3d bb ee 0c bd
       0.06925715 0.015641201 0.03564374 -0.03440736
000270 87 27 28 3d 6b 9e 2e bd a6 7e 8a bd 21 6c a4 bd
       0.04105332 -0.042631548 -0.067624375 -0.080284365
000280 03 44 13 3d 52 f3 97 3c 82 b8 9b bd e1 0d 16 be
       0.035953533 0.018548641 -0.076035514 -0.14653732
000290 58 36 bb bc 26 bf be bd 6a 37 34 3d 70 91 17 3c
       -0.022853062 -0.093138024 0.04399816 0.009250984
0002a0 8a e0 f5 bc ac e0 78 bc 61 eb 44 3d 43 18 8c bd
       -0.030014295 -0.015190285 0.048076037 -0.06840565
0002b0 fd d0 24 bd 2a 44 4b 3c 1d 4e 50 3d 1e 38 1f bc
       -0.04023837 0.012406388 0.050855745 -0.009717969
0002c0 5e 1c ea 3d f3 b9 76 bd 9a 19 94 bd b5 8c e2 bd
       0.11431192 -0.06023593 -0.072314456 -0.11061994
0002d0 32 93 ab 3c 53 24 a5 3a 2b f0 8c 3c ff a6 12 3d
       0.020944212 0.0012599326 0.017204365 0.03580379
0002e0 57 0d 59 3d 2a 46 1c 3d 54 d6 98 3d 27 27 a2 bd
       0.052991237 0.03815285 0.07462755 -0.07917624
0002f0 20 b9 c3 bd 9b ec 72 bd 70 35 0a 3d 09 9e 87 bd
       -0.09556794 -0.059307676 0.03374237 -0.0662194
000300 ee 65 cf bd d2 01 67 bd c0 e3 6a bd 53 af 1b 3d
       -0.101268634 -0.05639822 -0.057346106 0.038009
000310 1a 99 81 3d 42 4c 30 bd d3 7e 7e 3d 23 9d 1a 3a
       0.0632803 -0.043041475 0.062132668 0.0005898049
000320 b3 93 10 bd c7 58 b9 3d ee 66 bf 3d cd e3 99 bd
       -0.035297107 0.09050136 0.09345804 -0.07514153
000330 9a c8 c9 bd 71 fc 9c bd 73 be 5e bc 06 76 df 3d
       -0.09852715 -0.07665337 -0.013595211 0.10911183
000340 82 ec a5 3d da 2c e5 bc f3 87 c2 bd c8 14 1f bd
       0.08101751 -0.027975488 -0.094985865 -0.038838178
000350 99 05 14 bd aa e0 1d bd 34 bf fb bc 1b d8 a7 bd
       -0.03613815 -0.038544334 -0.030730821 -0.08195516
000360 f4 b0 36 3c e9 2f ab bd b9 b1 99 bd d9 ad b5 bd
       0.011150587 -0.083587475 -0.07504601 -0.088710494
000370 04 3b 17 bc 04 0a 61 3d ba 93 93 3c b4 5a b5 3b
       -0.009230379 0.054941192 0.018014777 0.0055344943
000380 e0 0d 5d 3c 0b b2 94 3d fb af b8 bb 38 75 3a bd
       0.013492078 0.072605215 -0.005636213 -0.045521945
000390 0f 6d 91 bd 8b e7 97 bd 90 c4 06 3d 04 10 a6 bd
       -0.071008794 -0.0741721 0.0329023 -0.081085235
0003a0 cc c4 8f bc 08 b7 c2 bc f4 ac 06 3e 51 25 2a 3d
       -0.017549895 -0.023768917 0.13151914 0.041539494
0003b0 7c 0d f8 3c cc 4d ba bb fb 38 23 bd e3 99 4f 3d
       0.030279867 -0.0056855436 -0.039849263 0.050683867
0003c0 1f 38 71 3b 3a db 8b bd 4c 64 fe bc b8 08 bd bd
       0.0036807132 -0.068289235 -0.031053685 -0.092301786
0003d0 f2 eb 1c be 5a 24 65 3d 1f 4c 13 3e 3e 29 a0 bd
       -0.15324381 0.05594287 0.14384507 -0.07820366
0003e0 4b 3e 4d 3c 2e 37 2a 3c 25 e3 40 3c 72 36 16 3d
       0.012527059 0.010389132 0.0117729055 0.036673017
0003f0 0d 69 16 3d b1 c0 73 3d 53 39 47 bd 3a 18 30 ba
       0.036721278 0.059509937 -0.048638653 -0.0006717477

Conv2.2.bias f4 [16]
000000 f6 63 82 b8 6e 39 e8 b4 a3 67 b6 b7 ff bf 89 37
       -6.217502e-05 -4.3255153e-07 -2.174435e-05 1.6421078e-05
000010 7e 99 70 36 90 c8 9b b5 c0 e7 d2 b3 30 a8 af b3
       3.585213e-06 -1.1606771e-06 -9.821042e-08 -8.179666e-08
000020 ab 6f 6d 36 d4 8d 78 34 ba 01 19 b5 e8 1e 6a b4
       3.5380751e-06 2.3148397e-07 -5.6999454e-07 -2.1804192e-07
000030 40 ee 70 34 a0 96 f8 b4 6b f9 2d 38 00 96 05 b3
       2.2438417e-07 -4.6303194e-07 4.1478703e-05 -3.11029e-08

Conv2.3.weight f4 [16]
000000 82 ea 72 3f 76 71 76 3f d9 d5 74 3f d8 fe 72 3f
       0.9488908 0.9626688 0.95638806 0.9492011
000010 01 c3 77 3f 82 0c 61 3f 25 bc 64 3f f3 27 5f 3f
       0.9678193 0.8790971 0.89349586 0.8717033
000020 7e 3e 6e 3f 1b 3d 5b 3f f0 1e 64 3f eb 9b 7c 3f
       0.93064106 0.85640115 0.89109707 0.9867541
000030 93 36 72 3f dc 8d 6b 3f b8 54 59 3f e7 41 63 3f
       0.94614524 0.92013335 0.84894896 0.88772434

Conv2.3.bias f4 [16]
000000 55 8a 8d bd a1 ef dc bd 44 4a ae bd 29 67 1e be
       -0.0691115 -0.10787893 -0.08510259 -0.1546904
000010 11 5f 80 be bc b4 0e be 9d e8 6a be 2f 08 3d be
       -0.2507253 -0.13936132 -0.22940297 -0.18460153
000020 31 5b 57 be b9 bd 40 be 13 d1 fb bd 12 c7 a8 bd
       -0.2103088 -0.18822373 -0.12295737 -0.08241095
000030 51 f2 a0 bd 45 ad 24 be 17 7b 59 be 31 e5 5b be
       -0.07858718 -0.16081722 -0.21238361 -0.21474148

Conv2.3.running_mean f4 [16]
000000 fd 47 0b be c8 9c 67 3d 23 eb 5d 3a 7c 76 d3 3d
       -0.1360168 0.056546003 0.0008465519 0.103253335
000010 d5 98 59 bb 2c 89 0f bd 50 e3 09 3d 12 83 e3 3c
       -0.0033202667 -0.035042927 0.033664048 0.02777246
000020 f7 3b 8f 3d 79 ad 38 bd a1 5f 04 be 51 dc 17 3d
       0.06993859 -0.04508731 -0.12927105 0.037075344
000030 e7 15 27 3d 88 8f 7c bd 8c 67 20 3d 9f e2 12 3e
       0.040792372 -0.06166032 0.03916125 0.14344262

Conv2.3.running_var f4 [16]
000000 3f 46 5c 3f 8e 35 6d 3f 0e 00 37 3f fb 30 71 3f
       0.8604469 0.9265984 0.7148446 0.94215363
000010 1b f2 1f 3f 77 b0 97 3f 23 d9 78 3f 1c b9 7d 3f
       0.624788 1.1850728 0.97206324 0.9911058
000020 5e bc 25 3f 89 1b 88 3f e2 f9 3f 3f 83 6f 3a 3f
       0.6474055 1.0633403 0.74990666 0.72826403
000030 5c 52 53 3f b3 1b 60 3f 97 56 66 3f 42 3d 71 3f
       0.82547545 0.87542266 0.89975876 0.94234097

fc1.weight f4 [128, 256]
000000 66 3d c0 3b 8c f1 31 bc 6e 64 09 bd 6f d3 cc 3a
       0.0058666943 -0.010860812 -0.033543043 0.0015626977
000010 a9 b9 6a bb 64 05 80 3c 38 b6 a6 3c 6c 9b 1f bc
       -0.0035816228 0.01562757 0.02035056 -0.009741645
000020 3e a2 32 bc 19 da e3 bc d1 91 b8 bb 84 a2 15 38
       -0.010902939 -0.027813958 -0.005632617 3.5675723e-05
000030 11 b9 ea bc 52 20 06 bd 3c 8f c8 bc 81 9b 22 3c
       -0.0286527 -0.032745667 -0.024482362 0.00992477
000040 dd cb 18 ba eb a8 4b 3c e0 58 54 bc 44 a6 28 bd
       -0.0005828718 0.01243041 -0.012960643 -0.04117419
000050 bc fa 19 bd 5f 18 40 bc dd 1f d4 bc 43 60 52 3b
       -0.037592635 -0.0117245605 -0.0258941 0.0032100833
000060 d2 c0 40 3a 42 f4 e1 3b e6 4b 8f bb a3 dc d2 3b
       0.0007352951 0.006895573 -0.0043730615 0.0064349934
000070 71 b8 bd bb 1b 2c d4 bb e0 88 81 3c 08 61 7a 3c
       -0.0057898094 -0.0064749843 0.015812337 0.015281923
000080 d3 37 07 bc d7 e5 73 3c c2 9a 44 ba 85 24 aa bc
       -0.008253056 0.014886341 -0.00074998674 -0.020769367
000090 1d db 89 3b fe 86 eb bb 21 e7 4b 3c be ed 5d 3c
       0.0042070285 -0.007187723 0.012445242 0.013545452
0000a0 90 aa 5b bc 71 1b 28 bc a9 bf 0a bd 73 75 52 3b
       -0.0134073645 -0.010260449 -0.033874188 0.0032113462
0000b0 56 c6 95 bc 85 c7 85 bc bd 43 68 bc 41 24 d0 bc
       -0.01828305 -0.01633049 -0.014176306 -0.025407912
0000c0 cb 76 88 bc 35 9e 0a 3d 59 14 de 3b ff 1f e0 3c
       -0.016658207 0.033842284 0.006777328 0.027359007
0000d0 4d 0b 6c bc d0 13 95 bb 04 e9 24 bc 0a b0 f7 bc
       -0.014406991 -0.004549481 -0.010065321 -0.03023531
0000e0 32 87 3b bc fe 5d 25 ba b5 fe ec bb 6f 35 80 bc
       -0.011445807 -0.00063082564 -0.007232512 -0.01565048
0000f0 d5 fa ee 3c 3b 1a 7b 3b 83 c1 b5 3a fa 02 1d bc
       0.02917234 0.0038315195 0.0013866875 -0.009583229
000100 b7 b5 eb bc a4 42 68 3c 4a 82 34 bc 49 31 f0 bc
       -0.028773172 0.014176045 -0.011017391 -0.029320376
000110 ce 8d 21 bc 3e 26 9c bc 2a 0f c2 ba 23 cf d3 bc
       -0.009860469 -0.019061204 -0.0014805545 -0.025855606
000120 77 f9 72 ba bb 9e bf bc a5 35 19 3c 8e 62 66 3b
       -0.00092687405 -0.023391118 0.009351169 0.0035153958
000130 09 0c 38 bc 90 c5 05 ba a1 b6 2e 3c 20 ec 8c bc
       -0.011233338 -0.00051029865 0.010663659 -0.017202437
000140 18 8a ca 3a d4 23 91 bb 26 ab cb bb 0a 06 06 3b
       0.0015452532 -0.00442932 -0.006215471 0.0020450377
000150 8f ac 65 bc dd 12 8b 3b db 79 13 39 dd fe de bb
       -0.014018192 0.004244192 0.00014064407 -0.0068052844
000160 88 52 ed 3b b2 a7 ac bc 83 a2 23 bc af 19 55 3a
       0.0072425045 -0.021076057 -0.009987476 0.00081291323
000170 53 9a d3 bc 78 6f 53 bb d1 90 3d 3c e7 93 ef bb
       -0.025830423 -0.0032262485 0.011570171 -0.0073113325
000180 d1 82 b1 3b 91 33 d7 bc f5 07 a6 39 7a 8c b1 bc
       0.005417206 -0.026269706 0.00031667916 -0.02167343
000190 69 fd 30 bd 86 99 96 3b fc 05 99 bc ba ea 72 bc
       -0.04321042 0.004595938 -0.018679611 -0.014826471
0001a0 f5 54 03 bc 4a 6f 2f ba 27 c5 4c bc be b7 b5 bc
       -0.008015861 -0.00066923036 -0.012498177 -0.022182342
0001b0 f2 77 7b bc 5e 5d 16 bc b1 48 70 bb a7 c2 21 3c
       -0.015348421 -0.009177534 -0.0036664421 0.009873069
0001c0 63 fc af bb c8 5e 95 bc 88 dd b3 bc 4e 99 0c 3b
       -0.005370663 -0.018233672 -0.02195622 0.0021453681
0001d0 1d 8e 11 bd 49 51 5c 3b e3 46 f7 ba e7 62 b8 bc
       -0.03553592 0.0033617786 -0.001886573 -0.022508098
0001e0 23 5c 0f 3c 26 65 36 3b df 65 cb ba 07 0c 1d 3c
       0.008749994 0.0027831285 -0.0015518031 0.009585387
0001f0 61 0d aa 3b aa 3a 22 3c f5 f4 d9 3b 0b 00 b5 bb
       0.005189583 0.009901682 0.0066515156 -0.0055236868
000200 de 9f 1c bc 1f 32 57 bc 62 e3 05 bb 3b d2 4c bc
       -0.0095596 -0.013134508 -0.002042972 -0.012501295
000210 69 2f 48 bc a6 b5 c2 3b be 1c 96 bc 6d a6 b4 39
       -0.012218335 0.0059420643 -0.018324252 0.00034456272
000220 e0 a7 54 3c ac 4d 06 3c 37 70 85 3c d2 77 c6 bb
       0.012979478 0.008197229 0.01628886 -0.006056764
000230 31 6b 06 3a 79 16 78 3b 27 83 e6 3c 72 d5 34 bc
       0.0005127667 0.0037855192 0.02813871 -0.011037217
000240 a1 87 39 bd fc c3 20 3c 6a 77 8a 3c 3f 00 80 bc
       -0.04529536 0.009812351 0.016902644 -0.015625117
000250 dd a4 16 bc 40 e7 59 bc 32 5f 9b bc 0f 53 3e bc
       -0.00919458 -0.013299763 -0.018966291 -0.011616482
000260 44 9f ba bc dc c3 5b 3b 2c 27 66 3b 5c 38 91 b9
       -0.022781022 0.003353349 0.0035118563 -0.00027698546
000270 d1 28 ab 3c 71 3a ee bb 2c f6 6c bb 82 ea 4e 3b
       0.020893486 -0.0072701504 -0.0036157472 0.0031572883
000280 f0 a5 b3 3b 8a 6c 0a bc 34 f0 55 3c cd eb 77 3a
       0.005482428 -0.008448729 0.013057757 0.00094574393
000290 9d 48 82 3c 9b 13 01 bc 20 85 61 3c 94 a9 ab bb
       0.015903765 -0.007878209 0.01376465 -0.005238721
0002a0 9f 02 6b bc 2d 97 10 bc 55 4e 16 bc 33 be e3 39
       -0.014343887 -0.008825106 -0.009173949 0.00043438523
0002b0 85 4c 35 bd 82 4f a3 bb 89 28 40 3c 8f b5 80 38
       -0.044262428 -0.0049838433 0.011728414 6.1373335e-05
0002c0 91 6d f3 3c f3 19 a1 bc f9 1e 20 3c 08 1e be 3b
       0.029715331 -0.019665694 0.009773009 0.00580192
0002d0 82 bd 73 bb 0c df 6d 3b 4e a2 aa ba f7 33 a8 3c
       -0.0037191813 0.0036296276 -0.0013018341 0.020532591
0002e0 46 db cd bc 94 d4 b6 bb 2b f0 d6 bb ff 71 e6 bc
       -0.025128972 -0.0055795405 -0.006559392 -0.02813053
0002f0 54 28 73 3b f8 0a d6 3c f1 c1 e6 bb 59 ec a4 bc
       0.0037102895 0.026128277 -0.0070421626 -0.02013223
000300 24 28 9b bc 3a 16 8c bc 95 09 6b bc 30 53 94 3c
       -0.018940039 -0.017100442 -0.014345546 0.018106073
000310 29 55 9a bb dd 67 b8 3b 1a b9 e3 bc dd 3e 9a bc
       -0.004709859 0.005627616 -0.027798224 -0.018828804
000320 96 9b 27 bc 0f 70 a2 bc 6a 6d a6 bb 34 f2 d9 bc
       -0.010229966 -0.019828824 -0.005078961 -0.02660475
000330 da c1 7d bc 98 0b 37 3c 0d 93 1f 3d 21 e1 05 bc
       -0.015488112 0.011172198 0.038958598 -0.008171351
000340 08 7c 12 bd f9 b5 47 bd 25 75 a2 3c 81 23 03 bd
       -0.035762817 -0.048757527 0.01983125 -0.03201628
000350 e8 f0 ee 3b fe aa 97 bc 6a ca 68 3b dd ae d8 bb
       0.007291902 -0.018514153 0.0035521039 -0.006612642
000360 e8 20 78 bc 93 fe b0 3b 23 a3 92 bb 6a 51 d7 bb
       -0.015144564 0.0054014414 -0.004475014 -0.0065709846
000370 bf 9b 20 bc be 6b 91 3b 8b 67 51 bc f6 70 7e 3c
       -0.009802758 0.0044378927 -0.012781034 0.015529862
000380 04 9a 6d 3b 1a 60 99 bc 63 51 b4 bc e8 c1 84 3b
       0.003625513 -0.018722583 -0.022011464 0.0040514357
000390 d7 99 72 3c 31 1a 94 3b fa ae 0d bb ec 5c 44 3c
       0.014807186 0.004519724 -0.0021619187 0.011985045
0003a0 0a d3 d4 bb 25 04 46 bb 15 06 9e 3a 9c 31 de bc
       -0.0064948844 -0.0030214873 0.0012056256 -0.027123265
0003b0 e6 3b e9 3b 8c 35 ec 3b 89 65 4c bc f3 39 a2 3c
       0.007117736 0.0072085317 -0.01247538 0.019803023
0003c0 b4 1f ff 3b 66 82 d0 3c e6 ee 07 3b 49 20 a5 bd
       0.0077857617 0.025452804 0.002074176 -0.080627985
0003d0 1f a9 9b bc bb 29 db bb cb c1 6d bc cf 97 a4 3c
       -0.019001542 -0.0066883243 -0.014511536 0.02009192
0003e0 b7 c5 82 3c f4 6a 15 3c 98 64 b6 bc b5 f7 2b 3b
       0.015963418 0.009119738 -0.022264764 0.0026240174
0003f0 d8 75 ab 3c cd 56 3c bb 1e 73 fc bb b7 0b 24 3c
       0.020930216 -0.002873826 -0.0077041527 0.010012559

fc1.bias f4 [128]
000000 d6 c8 9a bb dc c4 4d bc f5 dc 37 bb 6b 80 4c bc
       -0.0047236485 -0.012559142 -0.0028055285 -0.012481789
000010 ca 27 06 bb a6 57 85 3c ca 61 28 b5 b8 5e 84 b8
       -0.0020470493 0.016277146 -6.272718e-07 -6.311893e-05
000020 96 85 bf 3c 4f 82 43 bc 3d 74 11 bc e5 40 0a bd
       0.023379128 -0.011932923 -0.008877811 -0.033753294
000030 20 f2 e5 3b 1b 6c 0a b8 95 e2 32 3d a6 14 4c 3d
       0.007017389 -3.3002445e-05 0.043673117 0.04982438
000040 7f 2e ec bc 15 f0 6d b7 22 81 0e bb f6 91 32 bd
       -0.028830765 -1.4182199e-05 -0.002174445 -0.04359623
000050 3e d2 04 3d 54 0a 5c bc 0b e6 4b 00 e4 6a f8 36
       0.032427065 -0.013430197 6.970186e-39 7.4034197e-06
000060 92 4b ec b8 71 90 2f 3d aa 66 c2 0a b5 5c 8c 3b
       -0.00011267433 0.04286236 1.8720138e-32 0.0042835125
000070 59 ab 20 b1 7a 48 0d bd b4 f5 51 bc 72 59 da bc
       -2.3380464e-09 -0.034492947 -0.012814928 -0.026653979
000080 d7 da 8b b2 24 af f3 bb 4d 51 29 3d 68 d1 d0 bb
       -1.6281247e-08 -0.00743665 0.0413373 -0.0063726194
000090 0a 3e e8 3a 52 c3 fc bc 71 bf e3 3c 21 e9 8c bb
       0.0017718684 -0.030854855 0.027801247 -0.004300252
0000a0 23 8e 18 bc a7 d5 b0 ba 92 c5 9c 3c 6f f3 a1 3c
       -0.009311232 -0.0013491408 0.019137178 0.019769398
0000b0 e7 d8 8a bc 32 06 47 3d 45 e5 3a bc 27 92 af 3b
       -0.01694913 0.048589893 -0.011407201 0.005357999
0000c0 19 83 04 3c c1 22 03 3d ed 44 19 bc f8 3a 4e bb
       0.008087897 0.032015566 -0.009354812 -0.0031468254
0000d0 43 5d 17 bd f0 62 07 3d 1a b6 10 80 3c e7 89 3c
       -0.036954176 0.03305334 -1.534694e-39 0.016833894
0000e0 f6 f7 eb b7 20 3c 13 bd 9a cc db 39 c4 dd ca 3c
       -2.8129649e-05 -0.03594601 0.00041923375 0.02476395
0000f0 00 f9 bd 3b 37 6e 30 01 30 0d 36 b9 ff ec 5c ba
       0.0057975054 3.240517e-38 -0.00017361785 -0.0008427649
000100 11 9a 7f 3c bb 45 23 bc 3f 52 d1 3c f2 9e 86 bc
       0.015600697 -0.0099653555 0.025551913 -0.016433213
000110 8c dd 8a bc 3e 56 67 bd 4f d6 73 bb ab 4a 69 bb
       -0.016951345 -0.05647873 -0.0037206595 -0.0035597484
000120 9d bc a6 3c 31 b6 01 a0 d7 f5 63 bb eb ef cb bc
       0.02035361 -1.0987007e-19 -0.0034783983 -0.024894675
000130 69 f6 a0 bc 2f ff 44 3d a7 e4 86 bc 99 57 53 bd
       -0.019648748 0.048094925 -0.016466452 -0.05159721
000140 0b 03 fb 3c e6 5c 5b bc 99 d9 1d 3d 13 be 9f 3c
       0.0306411 -0.013388848 0.038537595 0.019499814
000150 de d6 00 bc 7a 73 4a bb 56 1c 19 3d b4 7e 18 3d
       -0.007863728 -0.0030891583 0.03738054 0.03723021
000160 e6 f2 34 3d 04 1d 6d bb 2d eb 92 3c 0f 37 4e 3d
       0.04417696 -0.0036180625 0.017934406 0.050345477
000170 8c da 53 bc 88 8f 11 91 e0 2d 17 bd 68 00 05 bc
       -0.012930524 -1.1482712e-28 -0.036908984 -0.008117773
000180 38 f6 fe 3b d9 34 4d bc 44 8e 7c bc 0a e9 2a b9
       0.0077808164 -0.012524807 -0.015414778 -0.00016299277
000190 c4 8e 41 3c a6 60 19 82 1c 05 2c bd cd 2e 7a 3d
       0.011813823 -1.1268401e-37 -0.04199706 0.06107979
0001a0 94 bc 38 3c 5b 07 1a bb 1e bd 88 b9 fe cc 50 3d
       0.011275429 -0.002350292 -0.00026080845 0.050976746
0001b0 3e 1a 3d 3d c6 97 b7 bc 29 e2 dd b9 cf 56 2e 3b
       0.046167605 -0.022411238 -0.00042320907 0.0026602035
0001c0 e5 24 fb 3c 6c 8f 0e 3d cf 9e 92 3c 2a a3 ce 3b
       0.030657241 0.034804747 0.017897991 0.0063060718
0001d0 e1 c3 6a bd 4f fb 1c b8 9a 6d 3c 3d 92 45 18 bd
       -0.05731571 -3.7427348e-05 0.04600296 -0.037175722
0001e0 7e 35 92 bc 8b 43 21 3d 99 e0 8e bc b3 aa cd ba
       -0.017847773 0.039371055 -0.01744108 -0.0015691131
0001f0 6f 6e 84 bb 4d 02 03 00 ff 21 72 3c 96 b4 5c 3d
       -0.004041485 2.76332e-40 0.014778613 0.053883158
