tooth_IOSC_analyze-main/model.pth (torch, 11055 bytes, 17 tensors)

layer1.0.weight f4 [16, 16]
000000 85 16 c4 3e 08 4b 46 3e 20 e5 6f bd 4b 92 d9 3d
       0.3829843 0.1936456 -0.05856812 0.10623606
000010 ba 15 0c be 71 13 53 3d 10 45 f9 bd 3b 38 43 3e
       -0.13680163 0.051532213 -0.12171376 0.19064419
000020 68 62 99 3e 8b c8 fd bd 87 c3 5a 3e b0 a6 3f 3d
       0.2995789 -0.12391766 0.2136365 0.046789825
000030 94 22 3d 3e 50 ae 0a 3d 5c e1 f6 3d 60 94 10 bd
       0.18470222 0.033857644 0.12054703 -0.03529775
000040 db e8 95 3e 44 08 4d ba a4 05 ef bd 0f 71 bb bc
       0.29279217 -0.0007821361 -0.11670998 -0.022881059
000050 80 a5 67 bd 7b 3c a6 bc fc f3 cf bd 62 58 7e 3e
       -0.056554317 -0.020292511 -0.10153958 0.24838403
000060 da 82 10 be 0c 3d b0 bd ed c9 b9 bc fe ec 19 be
       -0.14112416 -0.08605394 -0.022679294 -0.15031812
000070 f0 4b c1 3c 8a d8 7c be 28 32 67 3e c0 76 59 be
       0.02359578 -0.24691978 0.22577727 -0.21236706
000080 a9 a5 a7 3e 5e a1 1e bc ac 3f a6 bd 79 40 5b 3d
       0.32743576 -0.009682028 -0.08117613 0.053528283
000090 cc 16 2d bd 99 bd 25 3e 00 e3 df 3c c8 d9 20 3d
       -0.04225807 0.16185607 0.027329922 0.039270192
0000a0 2d cc 59 3e 53 1c 1d 3d 09 0d 10 3e fe 8f 64 3e
       0.21269293 0.03835709 0.14067473 0.22320554
0000b0 b6 fb 13 3e 14 d5 df bd 9e c7 13 3e 70 38 37 3d
       0.14451489 -0.10929313 0.14431617 0.044731557
0000c0 cd 79 7b be a2 05 f2 bd a4 6a 7d be 67 51 52 be
       -0.24558182 -0.118174806 -0.24747711 -0.20538865
0000d0 43 c8 97 be a5 15 31 3d d8 78 93 3d 36 4c 93 3e
       -0.29644975 0.043233532 0.072007835 0.28769082
0000e0 a3 95 87 bb 3e bf 72 bc 6e e8 82 3e 38 e4 35 be
       -0.004137711 -0.0148161035 0.25567955 -0.1776284
0000f0 20 f3 80 3c f4 ba 2e be 50 e0 9d 3d e0 52 b0 bd
       0.015740931 -0.17063504 0.077088 -0.08609557
000100 d1 88 70 3e 0f 07 ac bd 06 53 54 3e 10 f1 8b be
       0.23489691 -0.08399784 0.20734796 -0.27332354
000110 dd 01 22 be 13 0d 73 3c e2 41 66 3e f4 52 63 bc
       -0.15821023 0.01483466 0.2248607 -0.013874758
000120 75 eb bb 3e 1f b0 29 be e3 a9 76 be fe 48 48 be
       0.36703077 -0.16571091 -0.24088244 -0.19559094
000130 5a 35 2c be 6c 61 cf 3d b8 55 b7 3d 76 b7 54 3e
       -0.16817227 0.101260036 0.089518964 0.2077311
000140 da 50 05 be bc 9b 4f be f8 d3 07 3e 8d 34 b5 bd
       -0.13019124 -0.20274252 0.13264453 -0.08847914
000150 1d 51 45 3e 07 75 3a bd 9a 71 12 3e 83 20 4d be
       0.19269224 -0.045521762 0.14301148 -0.20031933
000160 30 09 04 be ae c1 68 3d 1b 3c 5e 3d f4 89 82 bd
       -0.1289413 0.056825332 0.05425654 -0.06373969
000170 02 98 18 3e fa 07 2e 3e f6 a4 39 be 96 ab 08 be
       0.14901736 0.1699523 -0.18129334 -0.13346705
000180 02 d3 85 3e fb c4 1d bd 2c 83 b5 bd 98 85 04 bf
       0.2613755 -0.038517933 -0.0886291 -0.5176635
000190 e5 20 48 be c6 ae 6f 3e 38 29 07 bd f1 99 05 be
       -0.19543798 0.23406515 -0.032998294 -0.13047005
0001a0 65 b6 53 3d fd b0 3e be 8f 97 4c be 3a f8 0c be
       0.051687617 -0.18622203 -0.1997969 -0.13766566
0001b0 e6 0d 60 be 44 01 23 be 5e e6 7f 3e 70 68 41 3d
       -0.21880302 -0.15918452 0.24990222 0.04721874
0001c0 57 c7 6e 3e ed 41 61 be 54 22 28 be 10 f5 89 be
       0.2331823 -0.21997805 -0.16419345 -0.2694478
0001d0 3c 2c bb 3c 1c a9 87 be 64 9b dc bd 27 71 2b be
       0.022848241 -0.26496208 -0.10771826 -0.16742383
0001e0 a0 d0 b9 3d 52 94 b7 bd df fd 8d 3a 24 79 2d be
       0.09072995 -0.08963837 0.0010833106 -0.16940743
0001f0 98 b7 2f be d2 59 15 be 9c 41 af bd 50 0e 4a be
       -0.17159879 -0.14585045 -0.08557436 -0.19732022
000200 3f 11 df 3e ca ec 59 bc f6 42 5c 3e 11 6a d9 3d
       0.43567845 -0.013301084 0.21509919 0.10615934
000210 cb 48 6c be f5 67 a3 3d c8 df 8c bd 43 b0 db bd
       -0.23074643 0.079788126 -0.068786204 -0.10726979
000220 61 4d 66 be 3f ba 9a be 1b df b1 3d c0 af 5f bd
       -0.22490455 -0.3022022 0.08685132 -0.054610968
000230 5c 55 c7 3d 00 17 52 be d6 0f 3e 3e f2 ea 3b be
       0.09733078 -0.20516586 0.18560728 -0.18351343
000240 28 f2 38 3e b1 65 bc 3c 14 29 04 3e c6 2a 62 3e
       0.18061125 0.022997709 0.12906295 0.2208663
000250 d4 be 7d 3e 95 3e 02 be 88 da 80 3d d7 b3 f1 bd
       0.24779826 -0.12719186 0.062916815 -0.1180188
000260 49 bd a1 bd 53 5d 33 be 80 d8 68 3e 2e e4 3b be
       -0.078974314 -0.17516069 0.22738838 -0.18348762
000270 cc d1 08 3e e4 ef b3 3d a0 60 a6 3d ca 67 0a be
       0.13361281 0.0878599 0.081238985 -0.13516155
000280 4d d2 e9 3e 30 86 85 3d 38 ba 03 3d 62 89 2c be
       0.4566826 0.06519735 0.032160014 -0.16849282
000290 5e 67 05 3e f7 d6 ad bd 44 8f ea bd 8e 0c 8f 3e
       0.13027713 -0.08488267 -0.11453107 0.27939266
0002a0 b0 f6 04 bd ff 7d 3d be 1d 52 54 bd 80 9b 43 bc
       -0.032461822 -0.18505095 -0.05183612 -0.01193893
0002b0 c4 f0 0e 3e 54 d5 82 bd 32 11 12 be ac 54 af bd
       0.13959032 -0.06388345 -0.14264372 -0.08561072
0002c0 58 71 9f be 0a b2 6e 3e 80 27 46 3e 88 8f 90 be
       -0.31141162 0.23310104 0.19351006 -0.28234506
0002d0 53 23 50 bd 0c 35 1d 3e 68 ae 39 3d 28 aa af be
       -0.050814938 0.15352267 0.045332342 -0.34309506
0002e0 ea 04 32 3e 25 20 62 3c 49 82 83 3d 50 f0 33 bd
       0.17384687 0.013801609 0.06421334 -0.04393035
0002f0 08 94 87 bd d0 18 db 3c d0 e4 34 bd 98 93 98 bd
       -0.066200316 0.02674523 -0.044163525 -0.07450026
000300 c4 53 2b 3e 82 1a 37 3e 20 bf ca bc 72 11 0b be
       0.16731173 0.17881206 -0.024749339 -0.13580874
000310 1d 9f c8 3c 34 8c fe 3d 60 2e 76 3d 7f cf d0 bc
       0.024489934 0.124290854 0.06010282 -0.025489567
000320 1c b7 34 be ce b2 2a bd b5 5f 70 3e c0 73 c7 3d
       -0.17647976 -0.041674428 0.2347401 0.097388744
000330 a0 b9 4b bc 08 58 1a be 42 9f 1c be fa 50 65 be
       -0.012434393 -0.15072644 -0.15295127 -0.22394171
000340 79 64 64 3c e9 6f 0a 3e 2c 3b 23 3e f7 60 30 3d
       0.01393997 0.13519253 0.15940541 0.043061223
000350 dc 1a 56 be 7a c3 0d be b0 9a 21 bd 04 06 8d 3e
       -0.20908684 -0.138441 -0.039454162 0.27543652
000360 64 76 37 bb 88 c2 04 be 69 86 3f 3d e8 02 c3 bd
       -0.002799415 -0.12964833 0.046759043 -0.09522039
000370 8c b2 25 be e4 d9 3a 3e ac ce e8 bd 28 47 4d bd
       -0.16181391 0.18247181 -0.113675445 -0.050116688
000380 83 30 92 be 16 2a 82 3e 58 f4 41 3e 23 a5 a9 3c
       -0.28552637 0.25422734 0.18940866 0.020708626
000390 04 52 9f bd 74 6d ab bd f6 ea 4f be c5 f9 81 3d
       -0.07779315 -0.08370486 -0.20304474 0.06346468
0003a0 47 41 12 3e 09 1a c6 3d d6 b0 87 3d 4c 95 81 3d
       0.14282714 0.096729346 0.06625526 0.06327304
0003b0 80 71 20 bb 86 b0 42 be 6c 55 5b be 02 73 6f be
       -0.0024481714 -0.19012651 -0.21419305 -0.23383716
0003c0 eb 92 bd 3e 7b e0 22 be 28 15 4e bd 05 7a f6 bd
       0.37026152 -0.15905945 -0.050313145 -0.12034992
0003d0 2c 67 ec ba d4 7d 00 be 40 46 27 be 43 61 8c 3d
       -0.0018036119 -0.12548 -0.16335392 0.06854489
0003e0 33 73 56 bd 18 03 3b 3e 70 ad 22 bd 10 cb 3b be
       -0.052355956 0.18262899 -0.039716184 -0.18339181
0003f0 68 ac 34 bd d0 30 f8 bd 60 a4 9c bd fc b5 73 be
       -0.044109732 -0.12118685 -0.076485395 -0.2379989

layer1.0.bias f4 [16]
000000 d7 a5 2e 3e d7 5d 80 be 71 56 87 3a 7c 60 5f 3e
       0.1705545 -0.25071594 0.0010325444 0.2181415
000010 50 39 40 3e 16 cb 1e be d7 ef 47 3e 90 9e ca bd
       0.18771863 -0.15507159 0.19525085 -0.09893525
000020 fe f1 15 3e 28 2a 64 3e a7 1b 01 be 26 fa 8b 3d
       0.14643094 0.22281706 -0.12608205 0.068348214
000030 3c 7a dd bd 90 f0 61 be 02 19 c0 3c fe 77 95 be
       -0.1081433 -0.22064424 0.023449425 -0.2919311

layer2.0.weight f4 [8, 16]
000000 1b 93 81 3e ee 6e 16 3e 26 c2 d4 3e ee ed a8 3c
       0.25307545 0.14690754 0.41554374 0.020621266
000010 eb 91 29 be 00 ed 7a 3d 50 50 6d 3e a8 4f 0f 3d
       -0.1655957 0.061261177 0.23175168 0.034988075
000020 68 13 18 be f3 4d 36 be c5 3e d0 3d 82 8d 80 be
       -0.14851153 -0.17803173 0.10168222 -0.25107962
000030 d0 32 6c 3d 6b 28 0c 3c 4a d1 88 be 8b ce e0 3e
       0.057665646 0.008554558 -0.26722175 0.4390758
000040 eb 2a 70 3e 86 ce a3 be c7 c8 2e be c6 d0 5e be
       0.23453872 -0.31993502 -0.17068778 -0.21759328
000050 2d 72 82 be 93 2d 40 be 33 c9 49 3e d5 07 21 be
       -0.25477734 -0.18767385 0.19705658 -0.15725644
000060 03 1a 31 be 78 3c ae 3a 34 f3 e0 be c3 b7 f5 bd
       -0.17295079 0.0013293168 -0.4393555 -0.119979404
000070 73 1c 56 bd 56 0b 2b be cf d5 87 bd 28 25 63 be
       -0.052273225 -0.16703543 -0.06632578 -0.22182143
000080 65 c8 55 be 01 d1 a8 3e d9 5f a2 bd ad bb a6 bc
       -0.20877226 0.32971957 -0.07928438 -0.020353163
000090 b2 85 99 bc a7 06 39 3e de cf 38 3e 52 90 7b 3d
       -0.018740509 0.18068944 0.18048045 0.06141693
0000a0 45 b1 58 be 31 ad 0c 3e 5b a4 85 3e 89 57 3e be
       -0.21161373 0.13737942 0.26101956 -0.1858808
0000b0 37 c6 9b 3e bf a7 09 3e 46 c2 2d be 59 83 25 3e
       0.30424663 0.13442896 -0.1696864 0.16163386
0000c0 d2 9e d7 be 25 03 0b 3b 9f 73 f1 3d 5e d4 14 3e
       -0.42113358 0.002121159 0.11789631 0.14534137
0000d0 5a 0f 5f be 6f e2 cd bd c1 ba c2 be ee 79 ba be
       -0.217832 -0.100529544 -0.38033107 -0.3642115
0000e0 9a ff 92 be 3c 2a 9e bd 2d 02 70 3e 2c e9 15 3e
       -0.28710634 -0.07722899 0.2343833 0.1463973
0000f0 47 12 38 be 9d 52 42 be c7 06 48 3e 4b 5c 9b be
       -0.17975722 -0.18976827 0.19533835 -0.3034385
000100 1a 07 f0 bd b8 0f 7c 3e 13 1d 16 be 77 09 cb 3c
       -0.117201045 0.24615371 -0.14659528 0.024784787
000110 36 27 b5 bc eb d9 94 bd 77 13 ab bd 57 81 a6 be
       -0.022113424 -0.07268127 -0.08353322 -0.32520553
000120 c9 80 95 be 6b 15 5e be 0c ac b5 3e 06 2b c7 bd
       -0.29199818 -0.21687858 0.35482824 -0.09725003
000130 c4 2c 0c be e3 1e 57 3e 2f 1b ee 3d d6 18 1d 3d
       -0.13688952 0.21007876 0.116262786 0.038353764
000140 01 23 84 3e 88 35 28 be fa cf e1 bd 22 76 98 3d
       0.25807956 -0.1642667 -0.110259965 0.07444407
000150 bc e7 78 3e 87 6d b3 3c b3 9a a5 bd 57 08 88 3e
       0.2430715 0.021902813 -0.08086147 0.26568863
000160 f2 4f 45 bd e0 b8 01 bd 4f 54 88 be 7a d6 95 3d
       -0.048171945 -0.03167045 -0.26626822 0.07316299
000170 c1 f8 07 3e 56 44 75 be 6b ee 97 3d 50 7d c8 bd
       0.13278486 -0.2395185 0.074185215 -0.097895265
000180 df 2e f7 bb fe 4d 83 3b 64 d7 a2 3e 83 05 05 3e
       -0.0075434293 0.0040071 0.31804955 0.12990384
000190 da 9f 88 bc 85 12 52 be 85 d5 50 bd 72 f2 09 3e
       -0.016677786 -0.20514877 -0.050984878 0.13471392
0001a0 94 c3 c8 3c ea 72 b7 3d a7 73 87 3e db 7c 28 be
       0.024507321 0.08957465 0.26455423 -0.16453879
0001b0 b0 ab 0a 3e 65 95 42 be d0 38 80 3d 66 b3 a3 3e
       0.13542056 -0.19002302 0.06260836 0.31972808
0001c0 96 96 32 bd 62 84 bf 3e 26 1c 09 be d5 f2 15 be
       -0.04360064 0.37405688 -0.13389644 -0.14643414
0001d0 76 f9 ac 3d 02 8f 48 be a1 c6 de bd 13 11 fe bd
       0.084460184 -0.19585803 -0.10877729 -0.124056004
0001e0 69 3a 98 3e eb ee 10 3e f1 51 28 3e 40 60 88 be
       0.29732063 0.1415364 0.16437508 -0.26635933
0001f0 f1 78 6f be ac 67 1a 3e 81 94 2f bd e8 10 c5 be
       -0.23385979 0.1507861 -0.042866234 -0.3848946

layer2.0.bias f4 [8]
000000 e4 59 2e bd 50 23 24 3e b8 5a 5a bd 89 e8 89 bc
       -0.042566195 0.16029096 -0.053309172 -0.016834514
000010 a2 96 52 bc d4 0a 2f be f3 f5 6a be 0b 2d bf bd
       -0.0128532965 -0.17093974 -0.22945385 -0.09334763

layer2.1.weight f4 [8]
000000 d6 df 95 3f 63 e4 9c 3f 57 78 82 3f ff cd a3 3f
       1.1708934 1.2257198 1.0192975 1.279724
000010 b6 09 9a 3f 03 5f 82 3f c8 47 79 3f d6 f0 87 3f
       1.2034214 1.0185245 0.97375154 1.0620372

layer2.1.bias f4 [8]
000000 95 4d 9f 3d 49 d1 8a 3d 69 fe a3 3c e3 87 2f 3e
       0.077784695 0.06778199 0.020018773 0.1714168
000010 b1 6f 62 3e 39 33 4b 3d 12 8c e5 bd 66 1d 79 bd
       0.2211292 0.049609397 -0.11208357 -0.060819052

layer3.0.weight f4 [8, 8]
000000 31 08 38 be c0 96 e1 3d 64 c9 d2 bd 35 a3 0d be
       -0.17971875 0.110150814 -0.102923185 -0.1383179
000010 d7 96 ac 3e 74 36 fc 3d 91 0c 81 3e 7d 44 2f be
       0.33708832 0.123150736 0.252049 -0.1711597
000020 7b e1 13 be 5a 10 05 3e a5 37 71 be 88 aa 6c be
       -0.14441483 0.12994519 -0.23556383 -0.23111928
000030 10 e4 8b bc 65 6b 04 be dd b3 87 be 1a bf 56 3e
       -0.017076522 -0.12931593 -0.26504412 0.20971337
000040 ab 91 91 3e a8 ec 6a 3d 98 24 7c bd 5f ac a7 be
       0.28431448 0.0573546 -0.061558336 -0.32748696
000050 56 de 03 be f4 56 b8 3d 62 b6 2a 3e 78 12 37 bd
       -0.12877783 0.0900096 0.16671136 -0.044695348
000060 0d 22 0f be c6 bc 49 3e eb 29 90 be a2 d0 64 3e
       -0.13977833 0.19700918 -0.2815698 0.22345212
000070 64 74 0c be 00 51 b1 3b d4 16 8f bd a0 92 2f 3d
       -0.13716274 0.0054112673 -0.06986776 0.042864442
000080 a6 d0 da bd c1 9f 83 3e 80 97 16 bc b9 4d 8d 3e
       -0.10684328 0.2570782 -0.009191394 0.2759836
000090 eb 0b ae 3e c9 61 30 be 25 0e 84 be 6f 3b 91 3e
       0.33993468 -0.17224802 -0.2579204 0.28365657
0000a0 69 d9 8d 3e 82 37 8a be f0 e4 df bc 07 82 b2 be
       0.27704933 -0.26995474 -0.027330846 -0.34864828
0000b0 a9 2e 94 be a4 d9 8b 3d 30 a1 c0 3d 9c 7d 99 3d
       -0.2894185 0.06828621 0.09405744 0.07494661
0000c0 7c 11 c5 bd 21 01 a7 3e e0 0d 4f 3d 2e a2 55 be
       -0.096224755 0.3261805 0.05055034 -0.20862648
0000d0 a0 f8 a3 bc 3c e2 ad 3d 0c 91 fd 3d 98 fd 7f be
       -0.020016015 0.084904164 0.12381181 -0.24999082
0000e0 36 b0 07 3e 7b f5 38 be 91 6a 96 be 8b bf 45 be
       0.13250813 -0.18062393 -0.2937818 -0.19311349
0000f0 a5 93 ae 3e ed be 9a 3e 99 19 a2 3e 52 85 54 3e
       0.3409702 0.3022379 0.31660154 0.20753983

layer3.0.bias f4 [8]
000000 3f c0 88 3e c8 d5 41 bd 2a 34 47 be 1e e5 34 3e
       0.26709172 -0.04732302 -0.19453493 0.17665526
000010 29 9a 3b be d9 53 74 be f8 38 e7 bd 50 f4 97 3d
       -0.18320526 -0.2386011 -0.11290163 0.07419646

layer4.0.weight f4 [16, 8]
000000 58 b7 48 3e 93 40 0f bf f2 27 7a be 18 29 7a 3e
       0.1960119 -0.5595791 -0.244293 0.24429739
000010 78 41 8f bc 43 e5 d5 bd 86 1a a8 3e a2 ee db 3d
       -0.017487273 -0.10444119 0.32832736 0.10738875
000020 1a d8 c2 3e 3c 15 04 3f 0c 01 17 3e d6 80 92 bd
       0.38055497 0.515949 0.14746493 -0.0715348
000030 a6 5c 4d bd 48 50 f6 bc ca 21 0c be e3 60 82 bd
       -0.050137185 -0.030067578 -0.13684765 -0.06366136
000040 0e ea 3f 3e 3d fd 03 3f c9 e5 a5 bd 22 47 35 be
       0.18741629 0.51558286 -0.08100469 -0.17702916
000050 de 1f e8 bc b6 7d c9 bd 17 8b ba ba 8c 00 2b 3e
       -0.028335508 -0.098384306 -0.0014232126 0.16699427
000060 6c fd 84 3e bd 0f 36 be 80 6a a2 be 7a 29 58 be
       0.25974596 -0.17779441 -0.31721878 -0.21109572
000070 97 72 1c bd 60 d0 ae 3d 55 3b da 3d 4f f2 62 bf
       -0.03819522 0.08535838 0.10655848 -0.88650984
000080 f3 5e 1c 3e cf 70 93 be 1d e6 2f be f4 b5 2a bf
       0.15270595 -0.28797004 -0.17177625 -0.6668389
000090 b8 2e c6 3e e0 80 91 be 64 51 9a 3e 3c 88 08 bf
       0.3870752 -0.28418636 0.3014022 -0.5333288
0000a0 af fd f8 bd bf 05 a9 bc f3 2b 0c be 8f 6d dc 3e
       -0.12157761 -0.020632623 -0.1368864 0.43052337
0000b0 ef 16 ed 3e c0 a3 8f be 97 43 4e 3e 70 3f 04 3e
       0.4630656 -0.2805462 0.20142971 0.12914824
0000c0 8e c4 47 3e cf e9 38 3e 4f 56 be 3d 24 bb 9b be
       0.19508573 0.18057941 0.09293806 -0.30416214
0000d0 9a 7e 3a 3c e9 e1 b7 3e 84 d6 60 3e 40 55 b9 bd
       0.011382723 0.35914543 0.21956831 -0.09049463
0000e0 d9 6a e3 be 9a c1 e9 3d cf aa bb be 6d 57 94 3e
       -0.44417456 0.1141388 -0.36653754 0.2897295
0000f0 1f 3c 8a be 1f 20 5d be b3 d6 93 bd 74 64 23 3e
       -0.26998994 -0.21594284 -0.07218685 0.15956289
000100 32 9b ad 3e a7 bf 2e be dd 2f 27 3e 3b 43 f7 3e
       0.33907467 -0.17065297 0.16326852 0.4829348
000110 c9 30 f7 3e 71 7c 17 be ff 5c 97 3b d0 94 64 3e
       0.48279408 -0.14793564 0.0046192403 0.22322392
000120 3d 2b ac 3c bb cf 3c 3e 9e 8f 6e bd 35 b9 49 bf
       0.021016711 0.18438618 -0.058242433 -0.7879823
000130 04 ff c9 3d 2a 6a 23 be 1c 1b 29 3e 28 5f dd 3e
       0.098630935 -0.15958467 0.16514248 0.4323666
000140 f2 ac c4 3e ef 7a 0c 3f 77 2b 03 3e fa 8c 25 be
       0.38413197 0.5487508 0.1280955 -0.1616706
000150 08 3c 9d be f6 25 44 be 92 97 bd be 5b eb d5 bd
       -0.30709863 -0.19155106 -0.370297 -0.10445281
000160 7e 9b 96 be 96 63 bb be 4a 0e 02 be 31 07 22 bf
       -0.29415506 -0.36599416 -0.12700763 -0.63292223
000170 c4 1a 02 3e eb b4 34 3e 0c ac 82 3e e7 c7 0e be
       0.12705523 0.1764714 0.25521886 -0.13943444
000180 d1 2d 96 be 4b bc a3 3e 92 91 f5 bd 7c c0 ab bd
       -0.2933183 0.31979594 -0.11990656 -0.08386323
000190 f6 d8 e5 3d c8 8b 84 bd 7f 0e ac bd 24 95 8f 3e
       0.11223023 -0.06471974 -0.084012024 0.28043473
0001a0 74 73 fe be 74 f1 ec 3d ee f2 b2 be 3b 82 d0 be
       -0.4969746 0.11569491 -0.34950966 -0.40724358
0001b0 b2 c8 44 bf 47 84 86 3e f1 0b 61 3d ac 6b 0b 3e
       -0.76868737 0.26272795 0.05494303 0.13615292
0001c0 06 2c 8a be a0 a2 2d 3c 3d e3 34 be a7 32 8f be
       -0.26986712 0.010597855 -0.1766481 -0.27968332
0001d0 00 ee e7 bc 03 57 9f be 9e aa 7c 3e c0 b7 27 3d
       -0.02831173 -0.31121072 0.2467446 0.040946722
0001e0 9c c0 ba be ba 15 6a 3e 8e 91 ba be 4b 9c 02 3e
       -0.36475074 0.2285985 -0.36439174 0.12754934
0001f0 40 23 5c bd cd dc 90 be 57 37 66 be e8 0a eb bd
       -0.053744555 -0.28293458 -0.22482048 -0.114766896

layer4.0.bias f4 [16]
000000 7a b4 e8 3e 92 67 81 3e 63 49 81 3e 50 7f 5c be
       0.45450193 0.2527433 0.25251302 -0.21532941
000010 25 b2 72 be 1d 9b bd 3e 2e 3d 16 3e 92 2f 43 bd
       -0.23700769 0.37032405 0.14671776 -0.04765279
000020 b9 b7 ff 3d 2c 4a 8c be 84 db e5 3c 3b 49 b4 3e
       0.12486214 -0.2740034 0.028058775 0.3521212
000030 4a 3e ef bd 58 93 27 be 55 4e 96 be 0c 7b 3e be
       -0.116818026 -0.16364801 -0.29356638 -0.18601626

output.0.weight f4 [1, 16]
000000 ee e4 30 3e 8a c6 0f be 37 c9 8f bd 9e 7f 81 3e
       0.1727483 -0.1404058 -0.070208006 0.25292677
000010 2e f0 ca be 34 ec 4f 3e 24 4a 99 be 78 b8 af be
       -0.39636368 0.20304948 -0.29939377 -0.34320426
000020 d1 b1 75 3e 65 9b 8e 3e 99 c0 1b be df c4 63 be
       0.23993613 0.27852932 -0.15210189 -0.22243069
000030 ca f7 13 be e0 73 44 3e ea 2a b8 bd 1a a8 36 bd
       -0.14449993 0.19184828 -0.0899256 -0.044593908

fn1.weight f4 [16, 16]
000000 16 d7 6f be 5e 84 5f 3e b0 9c 20 3e 32 9c 7a be
       -0.23421893 0.21827838 0.15684772 -0.24473646
000010 50 8c f4 bd d0 fd a6 3d 00 64 52 bd 10 2f df bc
       -0.11940825 0.0815388 -0.0513649 -0.02724412
000020 10 2d e7 bd cc 9f 4d 3e 82 1a 0f be 7c 4b 54 3e
       -0.11287892 0.20080489 -0.13974956 0.2073192
000030 40 24 84 3c a8 d8 4d 3d b8 b6 47 3e 50 b8 28 bd
       0.016130567 0.050255448 0.19503295 -0.0411914
000040 7c c0 11 be a8 9d 25 bd 32 a1 4f 3e e2 f2 3d be
       -0.14233583 -0.040433556 0.20276335 -0.18549684
000050 90 6d 68 3d 38 98 7b be aa 38 06 3e e0 2a bd 3d
       0.056745112 -0.24569786 0.13107553 0.092366934
000060 80 a3 2d 3c 34 bf db 3d 00 6c 93 39 88 a8 0d 3e
       0.0105980635 0.107298285 0.0002811849 0.13833821
000070 a4 a7 4a be 80 60 16 bd 74 21 e3 3d da ed 7e 3e
       -0.19790512 -0.036713123 0.11090365 0.2489542
000080 7a 67 02 3e 1a 28 3a be 88 e3 44 3e a8 59 64 bd
       0.12734786 -0.1817936 0.19227421 -0.055749565
000090 88 a3 5a bd 4e ae 68 be 38 31 21 bd 5e 13 35 3e
       -0.05337861 -0.22722742 -0.03935358 0.17683169
0000a0 a0 ca 0e 3d b4 1b 15 be 8c 99 9d 3d 80 2b a4 bd
       0.034861207 -0.14561349 0.07695302 -0.080161095
0000b0 fa b9 69 3e 46 32 5e be 70 ba a1 bd d4 2f 77 be
       0.2282485 -0.21698865 -0.07896888 -0.24139339
0000c0 1c a4 c9 bd 24 68 a1 3d ea 6d 76 3e 20 fa 2b 3d
       -0.098457545 0.078811914 0.24065366 0.041986585
0000d0 c6 f8 7a 3e 08 59 48 3d 66 d9 13 3e bc 39 4d 3e
       0.24508962 0.04891303 0.144384 0.20041555
0000e0 12 ff 55 3e 0e 4a 0f be 24 5d 6b 3e 72 13 1b 3e
       0.20898083 -0.13993093 0.22984749 0.15144137
0000f0 84 66 ef bd 00 54 f4 bd 12 b8 56 be 10 95 80 3d
       -0.11689475 -0.11930084 -0.20968655 0.062784314
000100 28 80 4f be 0c 48 d8 3d 3c b0 a1 3d d2 69 5e be
       -0.20263731 0.10560617 0.07894942 -0.21720055
000110 3c 85 8b 3d a0 90 a6 bc 04 e4 e9 3d e0 e3 12 3e
       0.06812522 -0.020332634 0.11420444 0.1434474
000120 4a 80 7e be fe c6 6a 3e 3e b1 56 3e 68 b7 cb 3d
       -0.24853626 0.22927472 0.2096605 0.09947091
000130 5a f9 69 be a4 e5 b6 bd d4 61 94 bd 3c 95 83 bd
       -0.22849026 -0.08930519 -0.07245222 -0.064249486
000140 44 5d 10 3e ec 25 ba 3d 40 cc 4a 3e 80 c1 bf bd
       0.14098078 0.09089264 0.19804478 -0.09363079
000150 f0 4e ac 3d c8 2a b6 3d ac 24 55 be 38 53 78 be
       0.08413494 0.088948786 -0.2081477 -0.24250495
000160 ea d5 04 be 84 3e 2f 3e 80 03 71 be c0 d4 5e be
       -0.12972227 0.17113692 -0.23536491 -0.21760845
000170 4e 69 0f 3e 92 1e 0a 3e 54 88 52 3e aa 43 41 be
       0.14005014 0.13488224 0.20559818 -0.18873468
000180 c8 5d 3b be 18 53 03 3e 16 a0 5e 3e bc 2c 19 3e
       -0.18297493 0.12824667 0.21740755 0.14958471
000190 68 69 20 3d 04 be a8 3d f8 f9 72 3e 1c 2c 25 be
       0.039163023 0.082393676 0.23728168 -0.16130108
0001a0 3c 74 e8 bd 44 10 33 3e 54 2a 2f be 60 29 0d be
       -0.11350295 0.17486674 -0.1710599 -0.13785315
0001b0 b2 e0 3a 3e 1c 8c a1 3d 70 69 a5 3d 9c 01 d9 bd
       0.18249777 0.07888052 0.08076751 -0.1059601
0001c0 80 1b 62 bb b2 4c 6a 3e 06 a8 19 be 80 d0 00 3b
       -0.0034501255 0.2288082 -0.15005502 0.0019655526
0001d0 c8 81 f3 3d 30 bb 30 be 0c 9f 78 3e f4 cc ff bd
       0.11889988 -0.17258906 0.24279422 -0.124902636
0001e0 38 e6 75 bd 30 88 8a bd 1e d3 26 be 28 34 7b be
       -0.060034007 -0.06764257 -0.16291472 -0.24531615
0001f0 94 58 10 3e 70 06 88 3d 12 c5 6f be ba c4 24 be
       0.1409629 0.06641853 -0.2341502 -0.1609067
000200 b0 05 7d 3e 50 b4 c3 3d f0 6f cd 3d 10 2a 19 be
       0.24709201 0.09555876 0.10031116 -0.14957452
000210 74 75 e0 bd b8 93 1a bd e0 44 3b bd 70 6c 2f be
       -0.109599024 -0.03773853 -0.04571998 -0.1713121
000220 70 b9 a8 3c f0 8b cb 3c f0 a8 01 bd 80 f5 0d 3d
       0.020596236 0.024847 -0.031655252 0.034657955
000230 78 ee ca bd bc 3f 85 3d 8c 18 c1 3d 5e d8 06 be
       -0.099087656 0.06506297 0.0942851 -0.13168475
000240 20 d8 7d be cc ff 05 3e f8 42 74 3d d2 32 02 be
       -0.24789476 0.1308586 0.05963418 -0.12714699
000250 2c b5 76 3e 0c 8d e7 bd be fd 2c 3e 48 e0 01 3e
       0.24092549 -0.113061994 0.1689367 0.12683213
000260 ea a1 56 be e0 1a 25 3e 94 62 6b be e8 d3 0d be
       -0.20960203 0.16123533 -0.22986823 -0.13850367
000270 50 b7 2a bd 50 8e 2c be c4 16 7a 3e c0 64 4d bd
       -0.041678727 -0.16851163 0.24422747 -0.05014491
000280 74 5c cb 3d e0 95 64 be e0 5e 13 3e 0c 1f 9f bd
       0.099297434 -0.22322798 0.1439166 -0.077695936
000290 5a bb 42 be 78 bb 15 3d 60 0b f8 3d aa 8a 5d 3e
       -0.19016781 0.036555737 0.121115446 0.21634927
0002a0 e8 5c 1c be 18 f5 fb bd 90 e0 44 3d c0 e2 8a 3d
       -0.15269816 -0.12302607 0.048065722 0.067815304
0002b0 8c d9 c4 3d 16 83 0c 3e 20 32 68 bd d0 39 0e 3e
       0.09611806 0.1372188 -0.056688428 0.13889241
0002c0 24 bf 3c 3e d4 be 85 bd 10 22 36 3e 18 27 fa 3d
       0.1843229 -0.06530538 0.17786431 0.12214488
0002d0 36 ce 61 3e 66 7a 11 be 88 d4 fc bd 04 0a 94 bd
       0.2205132 -0.14206848 -0.123452246 -0.07228473
0002e0 60 c6 4f 3c a4 a6 19 3e 0e 24 12 be dc 2a 00 3e
       0.012681574 0.15004975 -0.14271566 0.1251635
0002f0 c4 7d b7 bd e8 a6 1a 3e 80 77 42 bc 3c 47 60 be
       -0.08959535 0.15102732 -0.011869311 -0.21902174
000300 ea dc 0c be d0 47 39 be cc ee fd 3d 0c a9 2b be
       -0.13756147 -0.180938 0.123990625 -0.16763705
000310 c0 a2 aa bc 18 ef 5c 3d 98 63 0c be 58 b2 93 3d
       -0.020829558 0.053938955 -0.13709867 0.07211751
000320 e2 f6 79 be 90 2b 37 be b4 f7 67 be 50 de 9a bd
       -0.24410585 -0.17887712 -0.22653085 -0.07561934
000330 30 85 ba bd 48 a1 12 3d 38 5a 3d bd 98 ae f0 3d
       -0.09107435 0.03579834 -0.046228617 0.11752051
000340 1a b3 6a 3e 78 b3 b7 3d 1c b6 c9 bd f8 b6 6f be
       0.22919884 0.08969778 -0.09849188 -0.23409641
000350 88 72 b9 3d a8 ac fd bd b8 45 02 3e d4 21 2b 3e
       0.09055048 -0.12386447 0.12721908 0.16712123
000360 28 7d c5 3d 22 35 70 3e dc 25 73 3e 58 d2 58 3d
       0.09643012 0.23457769 0.23744911 0.052934974
000370 f0 87 3a be 92 b8 64 3e 1c f1 f2 bd 54 d8 f1 bd
       -0.18215919 0.22336033 -0.11862394 -0.118088394
000380 20 37 56 3e f8 59 46 3e 94 b3 9a 3d 60 60 80 3c
       0.20919466 0.19370258 0.07553783 0.015670955
000390 a6 56 57 be 40 97 d4 bc 4e 89 75 3e a4 62 82 3d
       -0.21029148 -0.025951028 0.23978159 0.063664705
0003a0 80 58 af 3c 78 a2 54 bd 98 93 b2 bd f2 94 18 3e
       0.021404505 -0.051912755 -0.087195575 0.14900568
0003b0 20 98 7c 3c 08 8c 26 3e 20 3f 35 bd 90 b2 df 3d
       0.015417129 0.16264355 -0.044249654 0.1092273
0003c0 94 56 d3 3d 90 4a 23 3d 0e dd 20 3e de 6b 20 3e
       0.10319248 0.03986603 0.15709326 0.15666148
0003d0 d8 4a 6d 3e 80 ce 44 3e ac ea 82 bd 1a bc 58 be
       0.23173082 0.19219398 -0.06392416 -0.21165505
0003e0 80 34 3b 3d 00 01 0f bb e8 8a 85 bd 40 79 2b bd
       0.045704365 -0.0021820664 -0.06520635 -0.04186368
0003f0 80 a5 40 3c 06 c9 3a 3e 8c 9c 9f 3d ec ce b5 bd
       0.011758208 0.18240747 0.07793531 -0.08877358

fn1.bias f4 [16]
000000 14 8c d2 bd 10 93 7d bd b8 e3 c5 bd 78 33 66 3e
       -0.10280624 -0.061907828 -0.096625745 0.22480571
000010 d6 96 07 3e 6a 29 67 3e 00 4c 51 3a d0 82 4e 3d
       0.13241133 0.22574392 0.0007984042 0.05041772
000020 24 8b b1 3d 4e 51 72 be 20 e1 b6 3c a0 fd 88 bc
       0.08669117 -0.23663828 0.022324145 -0.0167225
000030 06 87 0f be 7c a4 46 be 58 a1 62 3e 18 25 50 3e
       -0.14016351 -0.19398683 0.2213186 0.2032665

fn2.weight f4 [16, 16]
000000 c4 4b ed 3d b6 49 74 3e 0c c6 cf bd 38 de 30 bd
       0.11586717 0.23856243 -0.10145196 -0.043180674
000010 4c da c1 3d 28 31 29 bd c8 f1 48 bd 88 99 53 be
       0.09465465 -0.041306645 -0.049058706 -0.20664036
000020 f8 8d 89 3d 30 b5 1a be c0 f4 14 3c 00 98 79 3e
       0.067165315 -0.1510818 0.009091556 0.2437439
000030 f8 99 9d bd d0 60 a1 bd b6 72 1a 3e 0c 3d bc bd
       -0.07695383 -0.07879794 0.15082821 -0.09191331
000040 80 e0 af bc 7c 09 6f 3e 14 e8 d1 bd 20 25 37 be
       -0.021469355 0.23343462 -0.102493435 -0.17885256
000050 d0 44 0f be 24 f3 8d bd 80 f1 f2 bd b6 d8 04 be
       -0.13991094 -0.06931141 -0.11862469 -0.12973294
000060 d0 d1 ce 3d 28 04 2e 3d 1c df a3 bd aa e3 46 be
       0.10098612 0.042484432 -0.08001539 -0.19422784
000070 50 35 a1 bd 84 15 d8 bd 50 9d a6 bd 88 f1 66 be
       -0.07871497 -0.10550979 -0.08135474 -0.22553074
000080 70 99 5c 3d d8 16 3c be 62 5f 47 be 16 29 51 be
       0.053857267 -0.18368089 -0.1946998 -0.2042583
000090 50 b3 d5 3d 6c 1e 1a be 14 54 d3 bd c8 a9 48 3e
       0.10434592 -0.15050668 -0.10318771 0.19596016
0000a0 46 ed 07 3e c4 c9 12 3e dc 12 73 be da 93 37 be
       0.13274106 0.1433478 -0.23737663 -0.17927495
0000b0 20 49 c1 bd 22 7b 53 3e e0 82 d1 3c 30 76 3f be
       -0.094377756 0.2065244 0.025575101 -0.18697429
0000c0 00 30 cd 3a e6 d3 46 be 90 5b 60 bd 88 c9 8c bd
       0.0015654564 -0.1941677 -0.05477482 -0.068743765
0000d0 00 9c 5d 3e d0 95 9e 3d 58 8e 32 bd a8 fb 2c 3d
       0.2164154 0.07743418 -0.04359278 0.042232186
0000e0 f8 cb 93 bd 3c 2a c9 3d 58 87 ca 3d e0 7e 89 3d
       -0.07216638 0.09822509 0.09889096 0.067136526
0000f0 d8 90 c7 bd 16 68 5a 3e b8 d5 13 bd 84 54 c7 bd
       -0.09744424 0.21328768 -0.03609249 -0.09732917
000100 1e 56 20 3e 8e a7 50 3e ca c2 7e 3e 2c af 97 3d
       0.15657851 0.20376417 0.24878994 0.07406458
000110 a4 89 ae bd 36 05 02 3e e8 a2 5b 3e f2 17 7b be
       -0.085223466 0.126973 0.21448863 -0.24520853
000120 70 b8 fd bc 4a 95 2e be 18 d5 3e 3d 64 c1 d3 3d
       -0.030971736 -0.17049137 0.04658994 0.10339621
000130 c8 8b 53 bd 70 54 ab bc ec 74 e6 3d 78 1a 2c bd
       -0.051646978 -0.020914286 0.1125277 -0.04201743
000140 ca fb 56 be b6 d5 4c 3e 38 d9 00 be 80 fd e0 bc
       -0.20994487 0.20003399 -0.12582862 -0.027464628
000150 30 2e c1 3c 20 28 76 bc cc d0 70 be d4 e7 ea 3d
       0.023581594 -0.015024215 -0.2351715 0.11469999
000160 08 91 e8 bd e0 c6 04 be 40 a6 74 3d c0 98 05 be
       -0.113557875 -0.1296649 0.05972886 -0.13046551
000170 30 a0 ec bd b4 84 ac bd d0 58 c0 bd 94 d4 d5 bd
       -0.11553991 -0.084237486 -0.0939194 -0.10440937
000180 44 14 8a bd 70 0e 85 3d e8 28 4f be a6 f3 1a be
       -0.067421466 0.06496894 -0.20230448 -0.15132007
000190 00 11 6f 3b e0 67 0e 3d 0a 63 0d 3e 5e d3 33 be
       0.0036478639 0.03476703 0.13807312 -0.17561099
0001a0 c8 6d a3 3d fe 81 11 3e 88 25 0e 3e a4 71 6e be
       0.079799235 0.14209744 0.13881505 -0.23285538
0001b0 a0 61 c3 bd 7e 0c 5c be ee ff 21 be 6e 96 0e 3e
       -0.09540105 -0.2148914 -0.15820286 0.13924572
0001c0 18 e7 18 bd c4 73 d9 3d 0c 46 16 be 60 9b 1b 3d
       -0.037329763 0.10617784 -0.14675158 0.037989974
0001d0 f8 d7 1a be d8 f1 ff 3d 24 f0 df bd 80 63 80 bd
       -0.15121448 0.124973 -0.10934475 -0.06268978
0001e0 16 1d 5e be 00 80 58 3a 22 11 73 3e 7c 83 f8 3d
       -0.21690783 0.00082588196 0.23737004 0.12134454
0001f0 24 96 08 be 00 58 5c 3b 60 8f e0 bc 58 19 4e be
       -0.13338524 0.0033621788 -0.027412117 -0.20126855
000200 32 ba 48 3e 80 0f 84 3b c0 a6 57 3d ac c2 ce bd
       0.19602278 0.004030168 0.05264926 -0.100957245
000210 18 93 ef bd d0 d8 28 3d c0 4a bd 3d 60 ae 65 3d
       -0.11697978 0.041222394 0.09242773 0.0560745
000220 80 c1 f6 bd c2 8c 78 3e c0 bc 16 bd 3c c7 1c be
       -0.12048626 0.24272445 -0.0368011 -0.15310377
000230 08 78 ef bd 00 03 7c 3e 00 00 4a 37 88 00 0b bd
       -0.11692816 0.2461052 1.2040138e-05 -0.033936054
000240 28 13 d5 bd ec 37 86 bd 4a 9c 57 be 60 70 4b be
       -0.104040444 -0.06553635 -0.21055713 -0.19867086
000250 88 d5 15 3e bc fe 5a 3e 08 4d 74 3e 36 d1 38 be
       0.14632237 0.21386236 0.2385751 -0.18048558
000260 04 76 0a 3e 98 74 1e be 2c b8 18 3e c8 b7 38 3e
       0.13521582 -0.15474164 0.14914006 0.18038857
000270 68 1c 46 3e 48 55 38 3e 92 25 20 3e 40 72 9f 3b
       0.19346774 0.18001282 0.15639332 0.0048659146
000280 48 41 eb 3d c0 2d b7 bd 50 f1 de 3d cc 8e a4 bd
       0.11487061 -0.08944273 0.108858705 -0.08035049
000290 00 8e 89 bb 26 d1 5e be 00 e0 85 bd 9c 9f 06 be
       -0.004197836 -0.21759471 -0.06536865 -0.13146824
0002a0 50 b5 ac bd 68 7a 23 be fa 41 66 be d0 5b 85 3c
       -0.0843302 -0.15964663 -0.22486106 0.016279131
0002b0 80 23 26 3e e0 26 69 3e ce 63 15 3e c2 b1 04 be
       0.1622448 0.22768736 0.14588854 -0.12958434
0002c0 be 2f 7d be 6c 35 c2 3d bc 70 0f 3e 72 c7 5b be
       -0.24725243 0.09482846 0.14007849 -0.21462801
0002d0 98 98 b7 3d 32 71 58 3e 20 1f 78 3c be 3a 1a be
       0.08964652 0.2113693 0.0151441395 -0.15061471
0002e0 6a e3 51 3e d4 a1 da 3d 04 86 29 3e 0c 21 2d be
       0.20496908 0.106753975 0.16555029 -0.16907138
0002f0 62 fa 14 3e ea dd 2e be 80 4f 7d 3e 2c ef d8 bd
       0.14548638 -0.17076841 0.24737358 -0.105924934
000300 d6 41 1a 3e 20 0c 4d 3d 74 af 87 3d 18 09 1d bd
       0.15064177 0.05006039 0.06625262 -0.03833875
000310 e8 4b d2 3d 20 63 d5 bd e0 4c 71 be 44 b6 c4 bd
       0.10268384 -0.10419297 -0.23564482 -0.09605077
000320 fc 95 48 3e 48 cb 86 bd 58 ee a0 3d c8 4c bd bd
       0.19588464 -0.065817416 0.078579605 -0.092431605
000330 c8 09 40 3e a8 36 19 3e 34 be b4 3d 7e db 02 be
       0.18753731 0.14962256 0.08825341 -0.12779042
000340 6c 2f 51 be 40 36 1a 3c 34 2f 16 be 4a 7b 52 3e
       -0.20428246 0.009412348 -0.14666444 0.20554844
000350 82 02 76 be ec cb e4 3d c2 35 7f 3e 4a 36 00 3e
       -0.24024394 0.111717075 0.2492285 0.1252071
000360 c4 94 ae 3d 3e 4f 76 be a2 3e 76 3e 18 27 2f bd
       0.085244685 -0.24053666 0.2404733 -0.042761892
000370 64 35 6f be b4 b6 7c 3e 38 59 d0 bd 20 e4 90 bc
       -0.2336021 0.2467907 -0.10173267 -0.017686903
000380 c2 4f 6a 3e 9a 75 31 be 10 1e 35 be 28 85 26 3d
       0.22881988 -0.17330018 -0.17687249 0.04065433
000390 00 11 09 bd b8 de 6b 3d 64 b5 56 be c0 fe f4 3b
       -0.033463478 0.057585448 -0.20967633 0.0074766576
0003a0 8c b7 e3 bd 28 b4 fb bd 2e 67 6a be 64 bc 07 3e
       -0.11118993 -0.122902215 -0.22890922 0.13255459
0003b0 80 42 45 3d f8 6e 58 be 38 26 4b 3e 0c 6e 9a 3d
       0.048159122 -0.21136081 0.19838798 0.07540521
0003c0 48 04 3e 3d 92 4e 16 be 80 6c 1a 3d 92 aa 76 3e
       0.0463908 -0.1467841 0.03770113 0.24088505
0003d0 20 96 2f 3e 0a 64 47 be a6 ae 69 3e 70 bd 9e 3c
       0.17147112 -0.19471756 0.2282053 0.01937744
0003e0 10 41 f6 3d 42 d4 46 3e 0a 3e 5a 3e 98 8f 47 be
       0.120241284 0.19416907 0.21312729 -0.1948837
0003f0 82 2b 60 3e 68 de 2d be d0 87 99 3c 2c e2 32 be
       0.21891597 -0.16979373 0.018741518 -0.1746909

fn2.bias f4 [16]
000000 b0 7e 60 bd 20 22 3a bc 60 03 f5 bc 70 c4 21 bd
       -0.05480832 -0.011360675 -0.029908836 -0.039493978
000010 e0 86 a1 3c f0 85 7c 3e 2c bd 14 3e 6c 39 0f 3e
       0.019717634 0.24660468 0.14525288 0.13986748
000020 3c ed cc 3d bc 30 46 3e c0 06 3d bc 50 d7 a2 3c
       0.10006186 0.19354528 -0.011537254 0.01987806
000030 78 bc 52 3d f2 43 5f be fa 38 4e be 70 16 fb 3c
       0.05144927 -0.21803263 -0.20138922 0.030650347

fn3.weight f4 [16, 16]
000000 f4 51 c8 bd 40 52 96 bb 40 f7 6a bd 10 66 1f 3d
       -0.09781256 -0.0045874417 -0.057364702 0.038915694
000010 be 8e 26 3e f8 cc a9 bd 34 05 4d 3e b8 20 4a 3e
       0.1626539 -0.08291048 0.20021516 0.19739044
000020 c2 7a 44 be 9e b0 45 be 88 1f 4f be 0e 4b 0c be
       -0.19187453 -0.19305655 -0.20226872 -0.13700506
000030 38 4f c7 bd e0 26 9a bc 60 07 79 bd f8 57 01 be
       -0.09731907 -0.018817365 -0.06079805 -0.12631214
000040 bc a8 a2 bd 94 36 b9 bd 52 25 7b 3e 10 c3 bd bd
       -0.0794234 -0.09043613 0.24525955 -0.09265721
000050 d6 4b 37 be 50 d6 d4 3d 60 97 6c bc 00 fc 43 3e
       -0.17900023 0.10392439 -0.0144403875 0.19139099
000060 08 f5 1f 3e d0 31 6b 3e ea 7b 3b be b2 92 24 3e
       0.15620816 0.2296822 -0.18308988 0.16071585
000070 5a d8 56 3e 7c d7 fc bd 60 4f 6b 3e 9a e8 3f 3e
       0.20980969 -0.12345788 0.22979498 0.18741074
000080 80 6c 33 3b b0 dc f6 3d 98 01 b3 bd 70 47 5f be
       0.0027377903 0.120538116 -0.08740538 -0.21804595
000090 64 6c 81 3d e0 a3 98 3d a4 4f 27 be e0 51 f8 3d
       0.06319502 0.07453132 -0.16338974 0.121249914
0000a0 56 ae 5a be dc 51 5c 3e 6e e8 77 3e 74 65 8b 3d
       -0.21355566 0.21515602 0.24209759 0.0680646
0000b0 2c 9f 20 be f8 2c f9 3d 78 81 2e 3d f0 38 8b 3d
       -0.15685719 0.1216678 0.04260394 0.06797969
0000c0 40 45 a8 3d 32 e8 42 3e 74 13 dc bd 00 58 66 bd
       0.082163334 0.19033888 -0.10745898 -0.056236267
0000d0 1c a0 8b 3d 00 27 df 3c c4 6e 4e 3e 08 76 06 be
       0.06817648 0.027240276 0.20159441 -0.13130963
0000e0 a0 29 15 bc 70 56 3f 3d 48 fb 87 bd fc 84 2e 3e
       -0.009104162 0.046713293 -0.06639725 0.17042917
0000f0 70 03 e0 3c 56 9a 6c be 30 df dd bc 9c 38 e8 bd
       0.02734539 -0.2310575 -0.027083963 -0.113389224
000100 b0 01 c7 3c a0 02 ee bc 66 ef 7d be 48 99 3a bd
       0.024292797 -0.029053986 -0.24798355 -0.045556337
000110 f0 27 c4 bc 50 fa 96 bd 32 35 6b 3e 98 6f 5f bd
       -0.023944825 -0.07371962 0.22969511 -0.054549783
000120 74 75 24 3e b8 a9 7d 3d 1c 19 58 be 30 a0 70 3d
       0.1606043 0.061929435 -0.21103328 0.058746517
000130 04 28 54 3e 24 73 27 be d4 78 25 be da 95 7a 3e
       0.2071839 -0.16352516 -0.16159374 0.24471226
000140 d4 b2 4d 3e 24 d2 0e be f6 0b 1a 3e a0 00 03 bd
       0.20087749 -0.1394735 0.15043625 -0.031983018
000150 de 65 7c be 90 df 99 3c 94 6c a5 3d 78 94 99 bd
       -0.24648234 0.01878336 0.0807735 -0.07499021
000160 c8 1d b2 3d e4 e7 5a be 7e 69 31 3e b0 3f 5a 3e
       0.086970866 -0.21377522 0.17325398 0.21313357
000170 ec 2c 0d 3e 20 8f 2d 3d 6c a0 a8 3d 6e 3a 39 be
       0.13786668 0.042372823 0.08233723 -0.18088695
000180 d0 de 7f bd 80 84 c3 bc e0 75 0e be 34 16 3d be
       -0.06246835 -0.023866892 -0.13912153 -0.18465501
000190 aa 30 2c 3e b2 bb 2d 3e 06 7f 68 be ac ec a2 3d
       0.16815439 0.16966131 -0.22704706 0.07955298
0001a0 60 48 d0 3d 20 31 73 3e 18 1c 14 3e a6 59 6b 3e
       0.101700544 0.23749208 0.14463842 0.22983417
0001b0 a0 9f a7 bd 86 4c 33 3e 12 3b 50 3e 7c bf 71 be
       -0.08184743 0.1750966 0.20335034 -0.23608202
0001c0 30 7e 4d be 60 43 4f 3d 22 c9 0b 3e 48 5e fe bd
       -0.20067668 0.050601363 0.13650945 -0.124203265
0001d0 30 8e e1 3c 00 48 be b9 54 97 81 3d be 8f 09 be
       0.02753362 -0.00036293268 0.06327692 -0.1343374
0001e0 dc 64 10 3e 0e 3e 2a 3e b2 a0 31 be 00 b8 1e 3b
       0.14100975 0.16625234 -0.17346457 0.002421856
0001f0 00 d6 35 3a 48 69 a4 3d 52 7c 6e 3e a0 26 96 3d
       0.00069364905 0.08027893 0.23289612 0.07331586
000200 e0 ac 68 bd 0a ec 65 3e 34 d5 c2 bd 9c ab 94 bd
       -0.05680549 0.22453323 -0.095133215 -0.072592944
000210 f0 d3 8b 3c 3e f2 42 be a0 db de 3c 92 b0 2d be
       0.017068833 -0.1903772 0.027204335 -0.16961887
000220 a0 93 d2 3c c0 36 c4 3c 28 be 0d 3d 38 e2 57 be
       0.025705159 0.023951888 0.034605175 -0.2108239
000230 10 25 73 be 80 94 eb 3d 68 8b 5b 3e d6 2a 63 be
       -0.23744607 0.115029335 0.21439898 -0.2218431
000240 50 a4 bd 3d 76 72 3c be 50 64 80 3c ec 2b 6e 3e
       0.09259856 -0.18403038 0.015672833 0.23258942
000250 de 34 42 3e fa 2b 3b be ba 5a 1e 3e 94 b6 05 3e
       0.1896548 -0.18278494 0.15464297 0.1305793
000260 00 0c c9 b9 7a fe 77 3e 8c 5a cb bd 10 4d 6e bd
       -0.00038346648 0.24218169 -0.0992938 -0.05817896
000270 d2 62 01 be b0 59 13 3d 20 92 87 3d 60 2f a3 3c
       -0.12635353 0.035974205 0.06619668 0.019920051
000280 fc 08 10 be 38 7c e6 bd 78 28 ae 3d b2 77 60 be
       -0.14065927 -0.112541616 0.085038126 -0.2192066
000290 e0 78 1f bd 40 77 b5 bb a4 71 cf bd 78 53 ba 3d
       -0.038933635 -0.0055378973 -0.10129097 0.09097952
0002a0 50 00 84 3c 82 ba 33 3e d0 e2 b5 bc 4a 92 21 be
       0.01611343 0.17551616 -0.02220288 -0.15778461
0002b0 94 e0 34 3e 18 00 0f 3d c8 a2 92 bd f6 ba 28 be
       0.17663795 0.0349122 -0.07159954 -0.1647757
0002c0 a8 03 70 3d 20 29 74 be 74 d9 86 3d dc 27 fd 3d
       0.058597237 -0.23843813 0.06584445 0.12361118
0002d0 36 90 60 be 9c 98 27 be 86 0b 38 be 70 2b 57 3e
       -0.21930012 -0.1636681 -0.17973146 0.21012664
0002e0 82 a1 59 3e e0 34 80 3c 94 55 70 3e e4 29 ab bd
       0.21253017 0.015650213 0.23470145 -0.083575994
0002f0 ce 87 78 be c8 d6 b2 3d b0 62 b5 3d 56 fa 7a 3e
       -0.24270555 0.087323725 0.08856714 0.24509558
000300 00 c0 97 b8 8a 32 44 3e 32 eb 1c 3e ea 48 39 3e
       -7.236004e-05 0.19159904 0.15324095 0.18094221
000310 7a 09 7e be 24 ce 52 3e 5a 3a 5a be c0 81 65 3e
       -0.24808303 0.20586449 -0.21311322 0.22412777
000320 a0 bd 29 bc 20 df 62 be 2c 62 8e 3d 90 6e 50 bd
       -0.0103601515 -0.22155428 0.069523185 -0.05088669
000330 00 f0 65 be 9c 9e b9 bd d0 28 d3 3c 7e 62 47 3e
       -0.22454834 -0.090634555 0.025776297 0.19471166
000340 6c 67 9d bd 48 0e 18 3e e8 3b 00 3d 40 11 0a 3c
       -0.07685742 0.14849198 0.03130713 0.008426964
000350 f0 ef 43 3d 3a 01 28 be 68 c9 54 be 58 e0 a0 bd
       0.047836244 -0.16406718 -0.20779955 -0.0785529
000360 fc 8d 6e be 80 c5 ee bd a0 70 3c 3c 9e 9a 28 be
       -0.2329635 -0.11658764 0.011501461 -0.16465232
000370 24 60 d4 bd b8 ff 37 bd c0 ef eb bc d4 50 0d be
       -0.103699 -0.044921607 -0.028800845 -0.13800365
000380 20 d1 44 3c a8 ba 0f bd 04 6e 92 3d 80 01 39 3c
       0.01201275 -0.03509012 0.0714989 0.0112918615
000390 64 ad ff bd fc 45 b0 bd 80 d6 3c bb 80 bd 1f be
       -0.124842435 -0.086070985 -0.0028814375 -0.15599632
0003a0 e0 53 a0 3c c0 99 90 bc 20 a5 c6 3d 80 58 72 3d
       0.019571245 -0.017651439 0.09699464 0.05916643
0003b0 10 96 3f 3e c0 06 07 bc e4 28 3d be 5c de e4 3d
       0.18709588 -0.008241355 -0.1847263 0.11175224
0003c0 b6 03 2d be 50 c0 0c bd 78 c9 a5 bd 8c 46 c2 bd
       -0.16895947 -0.03436309 -0.08095068 -0.09486112
0003d0 88 6e bd bd 60 3e 6b 3e 88 8c 12 3e f4 e4 8d 3d
       -0.09249598 0.22973013 0.14311421 0.06928435
0003e0 76 5f 70 3e 2a fe 67 be 88 3d 25 3d 9a e2 23 3e
       0.23473915 -0.2265555 0.040341884 0.1600441
0003f0 e8 0e 2a 3e 12 bd 4b be 28 37 b6 3d f0 d6 11 be
       0.16607249 -0.19896343 0.08897239 -0.14242148

fn3.bias f4 [16]
000000 e0 0b 20 bc a8 ad 55 bd 3c c0 55 be bc 33 74 be
       -0.009768456 -0.052167565 -0.20874113 -0.2384786
000010 00 6c 28 be 9c 54 e8 3d fc 34 ea 3d d6 a8 5e be
       -0.16447449 0.11344263 0.11435887 -0.21744093
000020 14 47 c0 bd c0 cf 85 3b 48 55 5d be 8e 3e 10 3e
       -0.09388557 0.0040836036 -0.21614563 0.14086363
000030 14 de 67 3e 40 1b 35 3d 38 36 3e be 68 c8 6e 3d
       0.2264331 0.04421544 -0.1857537 0.05829659
