tooth_IOSC_analyze-main/temp/model.pth (torch, 4303 bytes, 7 tensors)

fc1.weight f4 [16, 16]
-0.00014112359 2.481011e-06 -2.6190526e-38 -1.0010638e-06 -7.253791e-38 -0.000102726124 9.084417e-38 -4.0060033e-05
-3.447165e-05 -2.481011e-06 0.00020168617 -1.871843e-38 5.399899e-38 4.650943e-39 -2.8739488e-38 8.284943e-38
0.00047378207 0.0011591284 1.3221677e-38 0.00015223352 7.6089397e-38 0.00026186442 -8.695974e-38 -0.0008423166
-0.00066332327 -0.0011591284 -0.000605022 5.9507154e-38 4.884524e-38 -5.571749e-38 -1.5706796e-38 -8.695931e-38
0.12576576 -0.0061857537 1.6686769e-38 0.05070514 1.8167117e-38 -0.015453051 -2.9016816e-38 -0.0008010776
-0.014464263 0.0061857537 -0.010190315 -1.0875476e-38 3.2493197e-38 -2.095603e-39 1.9792197e-38 3.709769e-38
1.8862047e-09 1.7959868e-09 -5.21529e-38 2.6058933e-10 6.063735e-38 1.4725499e-09 -3.7846224e-38 -1.2539833e-09
-5.993984e-10 -1.7959868e-09 -3.906245e-09 2.462732e-38 6.4178763e-38 4.161445e-38 2.765111e-38 -2.1789577e-38
-0.08095439 0.036198273 -8.185138e-38 0.033943217 2.8205761e-38 0.01161817 -2.1176114e-38 -0.06476706
0.028712621 -0.036198273 -0.066948414 3.8727708e-38 -7.6113185e-38 -4.7791564e-38 -1.930885e-38 4.4551964e-38
3.648511e-07 5.7415826e-07 1.241352e-38 6.423015e-08 -8.341028e-38 2.376668e-07 -3.3980894e-38 -4.778898e-07
-2.1480349e-07 -5.7415826e-07 -4.812522e-07 5.794009e-38 -3.663086e-38 -4.6019628e-38 -2.4157606e-38 -4.5420253e-38
-1.19913e-08 1.6028415e-09 7.392836e-39 -3.1250846e-09 1.9689465e-38 -5.2628994e-09 7.2310924e-38 -1.1373544e-08
2.7108094e-09 -1.6028415e-09 1.0954587e-08 -3.3993612e-38 -2.8643323e-38 -7.1420175e-38 6.173216e-38 -7.1197946e-38
-3.865064e-06 -2.6559192e-07 -1.828523e-38 -3.7117711e-06 -3.926293e-39 -4.2232045e-06 5.080918e-39 -3.3341027e-07
3.511539e-06 2.6559192e-07 5.3294825e-06 -3.939467e-38 -6.877562e-39 -4.923129e-38 2.8709593e-38 1.762422e-38
-5.6638134e-09 -5.87727e-10 5.286395e-38 -1.707558e-09 -8.3881597e-38 -2.209733e-09 5.8920234e-38 -1.1556176e-09
4.149841e-09 5.87727e-10 6.872008e-09 2.3354836e-38 -7.471026e-39 -9.09129e-40 5.6079875e-38 -4.1188988e-38
-5.1783815e-07 -1.3807886e-07 -4.1804287e-38 8.297838e-08 -2.827156e-38 -5.3062003e-08 -4.0036986e-38 1.542366e-07
-5.3614464e-08 1.3807886e-07 3.32041e-07 -4.097111e-38 7.1793105e-38 2.9000556e-38 -4.04862e-39 2.1068175e-38
0.05795712 0.026057657 -4.2067692e-38 -0.06329022 -8.723814e-39 0.049361918 -4.4814455e-38 -0.03954319
0.048308186 -0.026057657 -0.04149194 3.884508e-38 5.604357e-38 2.5756886e-38 3.3549888e-38 2.366832e-39
-0.10504114 -0.0130838 8.60394e-38 -0.031422105 2.9971888e-38 -0.0352298 -3.2742527e-38 0.08214585
-0.0045693293 0.0130838 0.019149518 3.2583328e-38 -2.143827e-39 3.389408e-38 -1.301963e-39 4.5758135e-38
0.001736893 9.9178396e-05 -7.309992e-38 -4.583178e-05 -1.2908078e-38 0.0009185154 5.022847e-38 -0.0004683138
0.00058653014 -9.9178396e-05 -0.0014339667 8.5173e-39 -2.1556488e-38 -7.032409e-38 -1.257139e-38 -1.852466e-39
-6.8805093e-06 4.2153482e-07 -6.299367e-38 1.5378912e-06 -2.0344745e-38 -5.870636e-06 1.29844e-40 -1.5510229e-06
5.9139024e-06 -4.2153482e-07 2.6830041e-06 1.776778e-38 -5.0434884e-38 3.41622e-38 -2.736788e-38 6.04547e-39
0.11027084 0.023073731 7.6425753e-38 -0.10312239 -7.444294e-38 -0.05399875 -2.6505168e-38 0.018205246
0.09622296 -0.02307372 0.023187216 7.769945e-39 1.62137e-39 6.2034665e-38 6.611539e-38 4.2207575e-38
1.3191492e-07 -4.0189313e-08 4.419312e-38 -1.2084487e-07 2.2237945e-38 -1.2992359e-07 -2.4877666e-38 -7.6635644e-08
1.8777942e-07 4.0189313e-08 1.3817512e-07 -2.8600518e-38 2.265754e-39 -8.2543015e-38 4.0944775e-38 -8.4933765e-38
00000000: 93fa 13b9 727f 2636 4498 0e81 4a5c 86b5
00000010: 8c77 c581 ab6e d7b8 264d f701 2206 28b8
00000020: a795 10b8 727f 26b6 b87b 5339 5ed3 cb80
00000030: ceff 9201 f0a4 3200 0079 1c81 a089 e101
00000040: f465 f839 e5ed 973a a8f8 8f00 e0a0 1f39
00000050: 9222 cf01 d94a 8939 18ba ec81 e9ce 5cba
00000060: dfe2 2dba e5ed 97ba 579a 1eba 6ffe a101
00000070: 2af8 8401 6cad 9781 2808 ab80 cbb9 ec81
00000080: bdc8 003e ddb1 cabb ecb3 b500 31b0 4f3d
00000090: 88d2 c500 cb2e 7dbc 8afb 1d81 68ff 51ba
000000a0: 84fb 6cbc ddb1 ca3b 47f5 26bc 676c 7680
000000b0: e8e8 3001 b0d1 1680 9884 d700 a2fa 4901
000000c0: 779e 0131 abd6 f630 44f9 8d81 b042 8f2f
000000d0: 1112 a501 be62 ca30 f00d 4e81 9d58 acb0
000000e0: eac2 24b0 abd6 f6b0 b237 86b1 7915 0601
000000f0: 12b6 ae01 1492 6201 068c 1601 7a44 ed80
00000100: 6acb a5bd a444 143d 16d2 de81 0b08 0b3d
00000110: 1891 1901 235a 3e3c 6496 e680 98a4 84bd
00000120: bb36 eb3c a444 14bd 401c 89bd 8cda 5201
00000130: 2633 cf81 dc19 8281 3841 d280 6090 7201
00000140: c1e0 c334 db1f 1a35 d82b 8700 e6ee 8933
00000150: 7b10 e381 5a31 7f34 7402 3981 5648 00b5
00000160: bca4 66b4 db1f 1ab5 662f 01b5 59ba 9d01
00000170: f86f 4781 008e 7a81 ca86 0381 984a 7781
00000180: 4c02 4eb2 f94a dc30 3880 5000 12c1 56b1
00000190: 3866 d600 f4d4 b4b1 5cd9 c401 6065 43b2
000001a0: 1049 3a31 f94a dcb0 c832 3c32 2e14 3981
000001b0: f7f2 1b81 996c c281 090d a801 bad1 c181
000001c0: a6b0 81b6 ad96 8eb4 c81b c780 be17 79b6
000001d0: e8c0 2a80 0db5 8db6 8853 3700 8fff b2b4
000001e0: c8a7 6b36 ad96 8e34 e8d3 b236 287c 5681
000001f0: d8e3 4a80 3405 8681 554f 1c01 28e9 bf00
00000200: 6e9b c2b1 9c8d 21b0 cce8 8f01 5baf eab0
00000210: f158 e481 09da 17b1 6965 a001 aed3 9eb0
00000220: 6396 8e31 9c8d 2130 d21e ec31 c84f fe00
00000230: 2e5a 5180 48e6 0980 f8a9 9801 1241 6081
00000240: 9101 0bb5 d442 14b4 ac9a 6381 d931 b233
00000250: ceec 1981 4ae6 63b3 6afb 5981 3c9c 2534
00000260: ba45 66b3 d442 1434 5e43 b234 6511 5f81
00000270: 7e70 c301 e0e4 1d01 e815 2c80 8069 e500
00000280: 7264 6d3d de76 d53c ce09 6581 4e9e 81bd
00000290: 72fe 5e80 b92f 4a3d 3cfe 7381 0af8 21bd
000002a0: cede 453d de76 d5bc 74f3 29bd 247e 5301
000002b0: ab90 9801 dc3b 0c01 b8a9 3601 c4c5 1900
000002c0: cf1f d7bd 6f5d 56bc b638 ea01 77b4 00bd
000002d0: b72e 2301 1f4d 10bd 6c44 3281 153c a83d
000002e0: 50ba 95bb 6f5d 563c 73df 9c3c 8866 3101
000002f0: 1e58 1780 7489 3801 582d 0e80 8821 7901
00000300: 75a8 e33a fffd cf38 36ff c681 803b 40b8
00000310: 788e 8c80 86c8 703a 22bc 8801 0488 f5b9
00000320: 5fc1 193a fffd cfb8 f0f3 bbba c4be 5c00
00000330: b8ba ea80 bd70 bf81 ece3 8880 ec2b 1480
00000340: 20df e6b6 4e4f e234 2e7c ab81 8a69 ce35
00000350: df88 dd80 61fc c4b6 f469 0100 be2c d0b5
00000360: 0970 c636 4e4f e2b4 a90d 3436 5879 c100
00000370: fc4b 8981 28ff 3901 4201 1581 50d4 4100
00000380: aed5 e13d 1f05 bd3c fa0c d001 d531 d3bd
00000390: 28a7 ca81 cb2d 5dbd d04e 1081 2b23 953c
000003a0: 8b10 c53d 1905 bdbc 1ef3 bd3c 729b 5400
000003b0: b8a7 1100 dadf a801 b4fb b301 c6cc 6501
000003c0: 7fa4 0d34 9e9c 2cb3 389c 7001 96c1 01b4
000003d0: 5826 f200 2081 0bb4 6872 0781 e492 a4b3
000003e0: 6aa0 4934 9e9c 2c33 4a5d 1434 4eb7 1b81
000003f0: 00ac 1800 16b4 e081 b0ec 5e01 3236 e781

fc1.bias f4 [16]
1.1670317e-05 3.0775802e-05 8.847125e-05 -1.427752e-10 -0.0009401141 -2.4855867e-08 -2.2683708e-09 7.070204e-07
5.3327787e-10 1.083947e-08 -0.0007711615 -0.0012759689 -9.484888e-05 -4.887763e-07 0.00085143524 1.3789384e-08
00000000: a1cb 4337 4415 0138 a489 b938 a5fb 1caf
00000010: fd71 76ba a182 d5b2 9ae1 1bb1 12ca 3d35
00000020: 1896 1230 7e38 3a32 c627 4aba 693e a7ba
00000030: 9be9 c6b8 7434 03b5 da32 5f3a 5ae6 6c32

fc2.weight f4 [8, 16]
3.3494603e-21 9.917017e-21 1.8623446e-18 3.0017641e-25 4.6368246e-18 -2.9638126e-23 1.6082843e-25 -6.0791186e-23
-8.604451e-26 -1.8441402e-22 2.4197406e-19 -4.121707e-18 1.9397308e-20 -1.0211182e-22 4.4558875e-18 8.057981e-24
-3.4998578e-19 -1.6197053e-17 1.2706572e-17 -4.4230267e-23 -7.4722904e-17 -7.6989036e-21 -1.1431002e-22 -6.43447e-21
-3.0375443e-23 5.2790925e-21 -6.770589e-16 -1.728934e-16 -3.3046564e-17 -3.625448e-20 -2.6391334e-16 -4.7824534e-21
-1.6110205e-07 -7.444436e-06 -2.0713791e-05 -1.7136063e-11 6.3044345e-06 -2.247148e-09 -6.700482e-11 -7.580118e-09
-1.6570268e-11 -2.4668572e-09 -0.0001689757 -2.7646665e-06 -1.2129988e-05 -1.6222758e-08 -3.026032e-05 -1.716328e-09
7.109618e-08 7.372696e-07 -3.061071e-05 -1.1158184e-12 3.794776e-05 -6.1329875e-10 -1.38217285e-11 -1.315277e-08
1.22297615e-11 -3.771114e-09 0.00011295345 -0.00018570776 -1.4329221e-06 6.795267e-08 -2.4104382e-05 -8.4772744e-12
3.4578598e-38 4.197864e-39 -2.3371471e-38 1.5750068e-38 6.90977e-40 7.542069e-39 -4.1664617e-38 -1.5296563e-38
-9.2040714e-38 2.5212162e-38 -2.1095251e-38 -3.4342359e-38 -2.4157556e-38 2.04686e-39 4.083192e-39 4.1249866e-38
-2.0387544e-11 -4.071409e-09 7.921146e-09 -1.5982946e-14 -3.3715495e-09 -3.9353165e-12 -3.1133685e-14 3.4184322e-12
6.4208524e-15 9.716287e-13 -1.1970985e-07 5.4550597e-08 -1.0889068e-08 -5.2290533e-12 -3.3419695e-08 -1.3126547e-12
-6.4630866e-27 -2.773614e-25 -3.0896058e-25 -2.0339355e-31 1.3872203e-25 -1.3619009e-28 -2.9509178e-30 -1.402616e-28
-2.0468197e-31 4.855489e-29 -6.001777e-24 -2.9923683e-24 -5.6174243e-25 -6.7489564e-28 -1.8443982e-24 -6.049027e-29
0.00012066474 -0.00033629252 -0.12551384 -1.628003e-09 0.13134319 -4.7853814e-07 9.265639e-09 5.4077655e-06
6.8132295e-09 3.470983e-07 0.11958426 -0.12948072 -0.000125859 6.875197e-06 0.17433132 8.85085e-08
00000000: fc13 7d1d c053 3b1e b26a 0922 dacc b916
00000010: 9211 ab22 3952 0f9a 9018 4716 ecfb 929a
00000020: 3009 d595 60f1 5e9b 16d6 8e20 6c10 98a2
00000030: d033 b71e 28e4 f69a ab64 a422 30dd 1b19
00000040: 5b98 cea0 3664 95a3 1765 6a23 6be2 559a
00000050: 9e4c aca4 9d6d 119e 3d31 0a9b 6016 f39d
00000060: fae2 129a 4070 c71d 2126 43a6 2055 47a5
00000070: 7f66 18a4 fa34 2b9f bc22 98a5 0dad b49d
00000080: 65fb 2cb4 38cb f9b6 87c2 adb7 fcba 96ad
00000090: ae8a d336 3f6c 1ab1 5c58 93ae b639 02b2
000000a0: edc0 91ad 6985 29b1 122f 31b9 9c88 39b6
000000b0: e781 4bb7 395a 8bb2 8bd7 fdb7 ece3 ebb0
000000c0: 8aad 9833 c8e8 4535 0064 00b8 9809 9dab
000000d0: 192a 1f38 1095 28b0 8827 73ad 7ff6 61b2
000000e0: f325 572d 1293 81b1 6ce1 ec38 8cba 42b9
000000f0: d452 c0b5 60ed 9133 c433 cab7 4022 15ad
00000100: 8843 3c01 f0b5 2d00 277e fe80 c880 ab00
00000110: 2a86 0700 3820 5200 00d8 6281 9890 a680
00000120: 048f fa81 a044 0901 fab4 e580 43fa 3a81
00000130: b886 0381 d049 1600 4776 2c00 ec95 6001
00000140: ab54 b3ad 7ee4 8bb1 9215 0832 2af6 8fa8
00000150: edb0 67b1 2e76 8aac b236 0ca9 008d 702c
00000160: e955 e727 9dbe 882b 9889 00b4 044b 6a33
00000170: a112 3bb2 20fb b7ac 5889 0fb3 5fbd b8ab
00000180: be03 0094 abad ab96 c23c bf96 8d02 848c
00000190: c4ba 2b16 36a4 2c91 2a68 6f8e 7ecd 3191
000001a0: a0d8 848c da33 7610 b82e e898 f685 6798
000001b0: d2d9 2d97 0ae2 5592 12b4 0e98 6e5c 9990
000001c0: 640d fd38 6b50 b0b9 b386 00be 43c0 dfb0
000001d0: d47e 063e e474 00b5 b62e 1f32 5a74 b536
000001e0: cd19 ea31 d458 ba34 98e8 f43d 9896 04be
000001f0: 05f9 03b9 7eb1 e636 e983 323e 1012 be33

fc2.bias f4 [8]
5.9100173e-19 -4.675494e-16 -6.084456e-05 -0.00019897213 -4.284595e-39 -9.0026646e-08 -3.235617e-24 0.04444176
00000000: d46e 2e21 0ec3 06a6 5933 7fb8 2da3 50b9
00000010: b5a7 2e80 ac54 c1b3 ff57 7a98 9008 363d

fc3.weight f4 [8, 8]
-2.011793e-27 -2.5552049e-24 -1.2289512e-12 -3.4963325e-13 -6.178807e-39 -2.7974782e-16 -3.50493e-32 -1.9915588e-11
1.6409558e-17 -9.277894e-16 -0.000114209644 5.0759427e-05 -2.2028071e-38 -1.5065704e-07 -5.436323e-24 0.26395804
-2.1859389e-29 -2.2462499e-25 -1.04533014e-13 -1.1188858e-14 -3.4505075e-38 -1.4873369e-17 -4.7391902e-33 -3.0663555e-11
-3.760343e-26 3.3912673e-24 2.644073e-12 5.0858265e-13 3.0387964e-38 3.3944642e-16 5.2545373e-32 -2.0337734e-10
-2.1860566e-21 1.2649989e-20 6.265077e-08 2.5957547e-08 -3.305704e-38 -1.0110062e-11 4.4770803e-28 -5.622765e-05
-3.45869e-23 3.70687e-21 2.1757494e-09 -2.973426e-09 1.2094551e-38 2.318429e-13 4.4322774e-29 2.44197e-07
1.9786306e-19 8.497384e-18 -3.19939e-06 -7.229066e-06 -6.7369397e-38 1.6593323e-09 4.685923e-26 -0.0004104007
1.4469214e-17 -9.033342e-16 -0.00012758351 4.3354452e-05 -2.616671e-38 -1.430733e-07 -5.555544e-24 0.21260698
00000000: 0264 1f93 0cb3 4598 a2f5 acab 76d3 c4aa
00000010: 0048 4380 7e43 a1a5 83fc 358b eb2d afad
00000020: f959 9723 63b5 85a6 d683 efb8 85e6 5438
00000030: 4ddd ef80 4bc4 21b4 bc4e d298 8225 873e
00000040: 38ae dd8f 4009 8b96 2e63 eba9 808f 49a8
00000050: 0edd 3b81 c02e 89a3 b7db c489 18dc 06ae
00000060: 0334 3a95 7c31 8318 620f 3a2c 3e27 0f2b
00000070: a472 2501 73ad c325 646a 880b a29d 5faf
00000080: 7c2c 259d 98f3 6e1e a08a 8633 40f9 de32
00000090: cafa 3381 acdb 31ad 64e2 0d12 fbd5 6bb8
000000a0: 8240 279a a60a 8c1d 3084 1531 1055 4cb1
000000b0: b0b2 8300 1584 822a 40be 6010 2e1a 8334
000000c0: 7198 6920 c3bf 1c23 1ab5 56b6 3491 f2b6
000000d0: 9e65 b781 910e e430 2209 6815 0d2b d7b9
000000e0: 7774 8523 262f 82a6 f0c7 05b9 7dd7 3538
000000f0: 1277 0e81 b09f 19b4 71eb d698 a5b5 593e

fc3.bias f4 [8]
-1.07868395e-10 0.00077325146 -1.2246938e-11 4.1080012e-10 -1.1668092e-05 2.9077555e-07 -0.0006786881 0.0007092767
00000000: 8234 edae 07b4 4a3a 4e73 57ad fad6 e12f
00000010: 13c2 43b7 e31b 9c34 fde9 31ba c1ee 393a

fc4.weight f4 [1, 8]
2.5614089e-11 -0.23345907 1.9109007e-12 6.8399614e-10 7.468544e-05 1.2577028e-06 -0.0036287478 -0.18561071
00000000: cd4d e12d e50f 6fbe ba77 062c f303 3c30
00000010: 71a0 9c38 57ce a835 49d0 6dbb bc10 3ebe
